models/defense_model.pth (torch, 538280 bytes, 8 tensors)

linear1.weight f4 [256, 5]
00000000: cc06 69bd f7be dabd 43bc adbd 96dd 54be
00000010: d8ff 0b3e f2be 33bd f07f 9f3d 245f d1be
00000020: 4d70 e53c 7d03 e13e 37d4 50be 16fc 783e
00000030: 2126 0b3e 87da 4cbf 3689 f33e a65b 023d
00000040: ada1 d13d e513 6e3d 34a9 cd3f 65be e9bc
00000050: 7ecc 8ebe 6b9e 61be 747c 83be 8c9c f5bd
00000060: 20d1 553e 6698 b33d 9b59 58be aee3 553c
00000070: 4a6b dcbf ef95 4bbc 18c8 d7be 66a8 35be
00000080: 62be 8abe 8e9a d3be 8aeb 45be 1a3a 2ebe
00000090: bf96 d93d a674 eb3d 7666 443f ff04 e63f
000000a0: bec8 25be f59d cebd e46d 173e bd6e 823f
000000b0: d6b8 05bf d45b dabe 805b dbbe 298b b5bc
000000c0: a676 a6be 7a54 5c3d 2466 bfbe 9e5b 19be
000000d0: 12ba 8fbb 0c1e 99bd 9607 81bd de45 09bf
000000e0: 4989 04be a740 fc3b 09ec d13e 2c93 4a3e
000000f0: 6283 47bd 784b 7c3e ae89 323d 38d6 9b3f
00000100: c004 383f 2741 a9be 73ab c73e 45ae 9c3e
00000110: 3041 af3f 4994 c3bd 898e f0bb 5f40 293d
00000120: f9af adbd 1bf1 c63f 3027 11c0 a6c7 8dbe
00000130: f0ec e7bd 02d5 7e3e 9e09 b63f 30a1 6bbe
00000140: 8ebd 84be 1df6 d0bd c464 893e 6c59 f3be
00000150: 5a12 303d 1c6a 4cbe d051 11be f0b5 0bbe
00000160: 3c75 45be 4c79 873e 93d0 a6be d450 96be
00000170: 537f f6bb d853 de3e 72f4 14be 9242 d1be
00000180: dc69 c0bd 8053 98be 9bc8 9ebe 2e53 903e
00000190: bfcf fcbd 5f20 863c 711e b9be 19d3 1a3f
000001a0: c068 62bf 86c1 2e3e bf88 37be 7e4b d8be
000001b0: 0a7c 883f 4248 cebe 00d1 ffbb 3a63 c0bd
000001c0: b8d2 7fbe 475c 073f 91dd a5be d777 64be
000001d0: 7057 05bf 7df9 aa3d 94e9 aabe 2b59 133e
000001e0: 53b0 7ebd b17b fd3d 46c8 7fbf 02c1 7a3d
000001f0: 5d91 07bf c452 c9be 8750 153e dcfc 29be
00000200: 5134 b63f 3875 b93d 8957 70be b29b bdbe
00000210: 8c59 c9be d293 dc3e 709d 993d f098 b93c
00000220: b548 fcbd 868d ba3b 033a cfbf 9b58 853d
00000230: 5168 8d3e 29b2 933e a37a dcbe 8950 9a3f
00000240: ab6a 6b3f 47c5 533e 0949 99bd 20aa 56be
00000250: ac4c ab3d c9d5 d4bf 16ee f23d 12be 9bbe
00000260: d306 41be b539 14bf ad67 8c3d c414 a8bd
00000270: 5b87 39be 361c a8bd 1ba2 0cbf 66c0 dfbd
00000280: a6d2 013e 32fd bf3d 524b e9bc c9ca bf3f
00000290: 1039 3f3f 91a6 edbe f4c2 013e 57d9 efbe
000002a0: 0bba 9a3e 2a29 95bf 4a33 653c f168 c5be
000002b0: fcce fdbd 2df4 89bf e148 6b3d 2440 b6bd
000002c0: cc0b 04be 846a 0ebe d2c8 cebe 48c5 4dbd
000002d0: 5f8f 133c 23cd 9cbe daa5 39bf a30c a4be
000002e0: ccb5 193f 7da5 8a3c f559 acbe 9e16 01bf
000002f0: 256c f23e a5ee a63e cb78 e2be ef84 5c3e
00000300: aef4 d0bd 4250 de3e 8796 1e3d ec6f 87be
00000310: 9d6a 4bbe d9e2 e13d 03ba 533f 0318 8dbe
00000320: 2872 363d 074d 09bc 5d1b dfbe 5337 be3f
00000330: 6b1a 863c f8fc c2bd efc2 58bd e115 acbd
00000340: 2dab 9ebd 33e3 623e b73e acbe 307c e4bc
00000350: 3723 a8be 68fc 6f3e 307e dabe d1d4 863e
00000360: 52ea 15bf 7936 4ebe 3d55 9ebf dc93 9c3d
00000370: c981 283c 6bc2 bcbe c975 9ebd c274 a03e
00000380: d931 a23e 7a3e c73e a94d bf3d 2ed8 b8be
00000390: ca60 ca3e 7d29 11bf 29b5 cdbe e280 b8be
000003a0: 8e0a a2be 92e6 a73e b8b2 a4be 4ca0 033e
000003b0: dda3 68bc 84ee d9bd 5e2c a83f 97da 4e3e
000003c0: e121 71be 307f 14be 009f 613e 5a9c a5bf
000003d0: 0fa9 0cbe 9ad2 aebe d056 243e f3cd dcbe
000003e0: c389 b93f 0b1a ffbf 2cdf 93bd c272 773e
000003f0: 927a a7bc 8d2b 1240 1095 d13c ca49 a1bd
-0.056891248 -0.10680955 -0.08483174 -0.20787653 0.13671815 -0.04388327 0.07788074 -0.408929
0.02800765 0.43947974 -0.20393454 0.24314913 0.13588764 -0.80020946 0.4756562 0.031825684
0.10235915 0.05812444 1.6067262 -0.02853317 -0.2789039 -0.22033088 -0.25680888 -0.119927496
0.20880556 0.08769302 -0.21127932 0.013054771 -1.7220242 -0.012425884 -0.42144847 -0.1774002
-0.27098376 -0.41328853 -0.19328132 -0.17014351 0.10624456 0.11496858 0.76718843 1.7970275
-0.16189858 -0.10088722 0.14788014 1.0190045 -0.5223516 -0.42648184 -0.42843246 -0.022161083
-0.32512397 0.0537915 -0.37382615 -0.14976355 -0.004386195 -0.07476434 -0.06300275 -0.53622234
-0.12942995 0.007698137 0.41000393 0.19782704 -0.04870928 0.24638164 0.043588333 1.2174749
0.7188225 -0.3305752 0.38997993 0.30601707 1.3691769 -0.095497675 -0.0073412103 0.041321155
-0.0848083 1.554233 -2.2680168 -0.27691382 -0.11324489 0.24885944 1.4221685 -0.23010707
-0.2592587 -0.102031924 0.2683469 -0.4752916 0.04298625 -0.19962353 -0.14191365 -0.13643622
-0.19283003 0.2645973 -0.32581005 -0.29358542 -0.0075225024 0.43423343 -0.14546373 -0.40871102
-0.09395191 -0.29751205 -0.31012425 0.2818846 -0.12344312 0.016372858 -0.36156037 0.6047836
-0.88441086 0.17066011 -0.17923258 -0.42245096 1.0662854 -0.40289503 -0.007806897 -0.09393926
-0.24982727 0.5287518 -0.32395604 -0.2231134 -0.52086544 0.08348367 -0.3338133 0.14389484
-0.062179875 0.12377108 -0.9991497 0.061219223 -0.5295618 -0.39320958 0.145815 -0.16600364
1.4234716 0.09055561 -0.23470892 -0.3703285 -0.3932613 0.43081528 0.07500732 0.022655934
-0.12318555 0.0056931404 -1.6189579 0.06511041 0.2761865 0.28846863 -0.43062314 1.2055827
0.9195964 0.20680724 -0.074846335 -0.20963335 0.083642334 -1.6627742 0.118618175 -0.3041845
-0.1885026 -0.57900554 0.06855712 -0.08207086 -0.1811804 -0.08208506 -0.54934853 -0.10925369
0.12678012 0.09374465 -0.028478298 1.498376 0.74696445 -0.46416143 0.12672025 -0.46845505
0.30220065 -1.1653187 0.013989279 -0.38556626 -0.12392995 -1.0777642 0.05744255 -0.088989526
-0.12895125 -0.1390782 -0.4038759 -0.05023697 0.00900635 -0.30625257 -0.72518694 -0.3204089
0.60043025 0.016924614 -0.33662382 -0.50425136 0.47348133 0.32603946 -0.44232783 0.21535085
-0.10202919 0.43420607 0.038717773 -0.26452577 -0.19864888 0.11029596 0.82705706 -0.27557382
0.04454246 -0.008380181 -0.43575564 1.4860634 0.016370019 -0.09520906 -0.05292028 -0.084026106
-0.07747493 0.22156982 -0.33641598 -0.027891248 -0.32839367 0.23436129 -0.42674398 0.2633424
-0.5856067 -0.20137967 -1.2369763 0.076453894 0.010284849 -0.3686708 -0.077373095 0.3133908
0.31678656 0.38914853 0.093409844 -0.36102432 0.3952697 -0.5670393 -0.40177277 -0.3603583
-0.31648678 0.327931 -0.32167602 0.12854117 -0.014199224 -0.10641196 1.313854 0.20200573
-0.2354808 -0.14501643 0.2203331 -1.293834 -0.13736366 -0.3414505 0.16048741 -0.43125877
1.4495167 -1.9929823 -0.07220301 0.2416487 -0.020444188 2.2839081 0.025583774 -0.07875402

linear1.bias f4 [256]
00000000: e5cd ccbd 962b 61bd 92cc db3e 4030 b1bf
00000010: 283c d5bd 9a9f b93f 0064 953c 321b 10bf
00000020: 9f7d abbe 324e a6be fbf1 dbbe 5aeb 3dbe
00000030: 0ec5 7abf bf3f 4ebf 5dc6 403f 3d1e 81bf
00000040: f20e 003e 1039 883c 64b1 75be 80c3 8ebd
00000050: f2eb 0abe 0662 a6be b634 a7bc 86d9 4ebe
00000060: 3864 cfbe fae5 1d3f 90ef b8be d3a8 d43f
00000070: 47b7 08bf 83bb a6be b9b9 af3e 6cac 96bd
00000080: 4cbf 90bf ce29 573d 6a27 593f a0af 9abc
00000090: 1056 62be c82c 07bf f2b0 80be a3f2 6cbf
000000a0: 0611 e9be f6aa ffbd 0515 a93e 7e41 0f3f
000000b0: bc2a c6bd 8bde 4dbf 8072 413b 980d 62bf
000000c0: 28f6 3b3f 416b d63e d636 16bf 1555 1cbe
000000d0: fa4c 313f 9016 0abf 1271 a4be c3eb 98bf
000000e0: 1905 973f 00cd 57bc 00f5 533d a740 ef3d
000000f0: 5753 42bf 0aec b1bf 9dd5 3dbf 43f3 56bf
00000100: 61a5 cebe 56a5 ac3e 61a5 0e3f 167a e6be
00000110: a1cf 193f 2c37 f23d 0019 ad3d 7ae7 a43f
00000120: f081 7dbf 51ae 56be a022 883f 5997 383f
00000130: a991 35bf 32a8 b63e 111e 0b3d 5e1d 313f
00000140: 26cd d8be 8a5d 9e3d 6ed3 55bf 1f0d c1be
00000150: fe76 99be aacd 1f3f e302 fabe be8d 75be
00000160: 2e53 e7be 7671 4ebe 5c5d b2bb 2b12 c4be
00000170: 3352 953d 0fe0 633f 3234 4ebf b8d6 6cbe
00000180: 1819 c1bd 7e9d 3ebe 58d7 92be 0be7 843e
00000190: c82f 02be 10ec 50bf dac1 9a3e 4f30 b9be
000001a0: fd25 c93e 0171 bf3e c084 10bf be83 7bbf
000001b0: 063d e0be 35f4 97bf 33b6 333f 0376 b6be
000001c0: 386d 8fbe bb8e 2dbf 6bcd bcbf fcc4 d33e
000001d0: f646 16bf 71c2 8dbf 7ccb a13f 4848 943e
000001e0: 8cb7 87bf f3b8 dbbf 46e6 c63e 10f6 8a3d
000001f0: 04b5 163e 3597 1ebe a3d5 2ebf c296 32bf
00000200: a4cd b7bc 3319 cb3e 514e 9b3e 6c42 ebbd
00000210: 24e3 1a3f 253e 353f dbfd edbe 8597 9f3e
00000220: 3ca8 58bf d803 e2be 8279 a4bf 7e0b 8f3e
00000230: 8752 03bf 0f2e b1be 4295 6ebf 00fd 573d
00000240: b06c efbe 2179 ad3e 77c7 cfbe fc7d 023e
00000250: 39df 0abd 2453 41bf e1b8 3e3f c60a 91bd
00000260: 0ae1 0bbf 9b5c 8e3c 6ed8 9cbf 383b 713f
00000270: 70eb 263d 177d 07be 8a87 aa3e 5462 583e
00000280: 0397 1abf 3373 99be 08c2 98be 0000 6a3c
00000290: e89e d2bc 73be c83e 0cb4 a1bb bfd1 c03c
000002a0: 3ee3 b43f 93d6 5e3e bf16 df3e 97eb c93d
000002b0: e6b9 943e 70e4 41bf 71e0 56bf 740c 463e
000002c0: 7528 98bd 373f c1bf f819 9abd c583 093e
000002d0: 60bf 5fbf 86f1 04bf cd23 143f 88ab 913d
000002e0: 0ddb 9bbf 48f0 bcbd 9901 673f b616 82bd
000002f0: 27fc 003f e78a 9b3d fc9e c73d 0134 69be
00000300: 78ba 183e 7e7e e53e b2eb 083f 616d 2ebe
00000310: ea62 513f a12f 1abf 8226 103d c248 2cbf
00000320: 2cd7 9bbe 8577 66bf 6392 84bf d765 eb3e
00000330: 9258 eebe c376 77bf edc1 393d e592 edbe
00000340: 4e81 3fbf 9497 febd 3cde bcbe 0c26 553e
00000350: ca28 313d f136 b5be d324 e3be 12e3 38bd
00000360: cf4a a03e 7de7 373f 3161 26be b23c d53e
00000370: ca58 cbbe ae2d b0be 0442 d1be 2a48 643d
00000380: e718 6b3e 5e83 b4be c912 0ebf f21b 5abf
00000390: 355f 11be 5216 e83e b7dc 8b3f 0239 9a3d
000003a0: af3c 9dbe a9c6 bebe 4595 783f f906 cdbe
000003b0: 9305 20be f8cc 673e 321b 85bf d0d8 5bbf
000003c0: 1a93 413e e555 ab3e efde d5be cae3 c73e
000003d0: ad31 5abf 7569 44be cad7 12bf 7aac 32be
000003e0: 6dbb cfbe 6958 553f 223d b9be c33f 2dbe
000003f0: 4cf5 053d 61b7 923e b43c a73e a4d1 b03e
-0.10000209 -0.054973207 0.42929512 -1.384285 -0.104118645 1.4501832 0.01823616 -0.56291497
-0.3349428 -0.32481533 -0.42958054 -0.18546811 -0.9795693 -0.8056602 0.7530268 -1.0087353
0.12505701 0.016628772 -0.2399345 -0.069708824 -0.13566568 -0.3249666 -0.020410877 -0.20200166
-0.40506148 0.6167904 -0.36120272 1.6614021 -0.5340466 -0.32564935 0.34321383 -0.073571056
-1.1308379 0.052530102 0.84825766 -0.018882573 -0.22103143 -0.52802706 -0.25135 -0.92557734
-0.455208 -0.1248378 0.3302385 0.5595931 -0.0967612 -0.804177 0.002951771 -0.8830199
0.7342248 0.41878703 -0.58677423 -0.15266831 0.6925808 -0.5394068 -0.32117516 -1.1946949
1.1798431 -0.013171434 0.051747322 0.11682253 -0.75908417 -1.3900158 -0.74154073 -0.8396494
-0.4036055 0.3371989 0.557211 -0.4501502 0.6008244 0.118269295 0.08452034 1.2883141
-0.99026394 -0.20964934 1.0635567 0.7210594 -0.70925385 0.35675198 0.03396422 0.69185436
-0.42344016 0.07732685 -0.8352574 -0.37705323 -0.29973596 0.62423193 -0.48830327 -0.23979852
-0.4518065 -0.2016047 -0.005443258 -0.3829511 0.07291069 0.8901376 -0.80548394 -0.23128784
-0.094286144 -0.18614766 -0.2867992 0.25957522 -0.1271354 -0.816102 0.30226022 -0.3616967
0.39286795 0.37390903 -0.5645256 -0.982479 -0.43796557 -1.1871401 0.7019989 -0.3563691
-0.28013015 -0.67795914 -1.4750189 0.41361225 -0.5870203 -1.1074964 1.2640224 0.28961396
-1.0602889 -1.7165817 0.3884756 0.06785214 0.1471749 -0.15487368 -0.68294734 -0.6976129
-0.022436924 0.39667663 0.30333188 -0.11487278 0.6050284 0.7079795 -0.4648274 0.31170288
-0.84631705 -0.44143558 -1.2849581 0.27938455 -0.512978 -0.34605452 -0.931965 0.052731514
-0.4676261 0.33881477 -0.40581867 0.12743372 -0.033904288 -0.7551749 0.7450085 -0.07082133
-0.5464026 0.017378142 -1.2253549 0.94230986 0.040751874 -0.13231312 0.33306533 0.21131259
-0.60386676 -0.29970703 -0.29835534 0.014282227 -0.025710538 0.392078 -0.0049347933 0.023537515
1.4131849 0.21761541 0.4357204 0.09859388 0.2904808 -0.7573919 -0.8393622 0.19340688
-0.074295916 -1.5097417 -0.075244844 0.13429172 -0.8740139 -0.51931036 0.5786713 0.07112795
-1.2176224 -0.092255175 0.9023681 -0.06351988 0.50384754 0.07594853 0.09747121 -0.22773744
0.14914882 0.44823068 0.5348464 -0.17033912 0.81791556 -0.60228926 0.035192974 -0.6729852
-0.304376 -0.9002612 -1.0357174 0.45976135 -0.4655195 -0.9666559 0.045350958 -0.46401134
-0.7480668 -0.12431255 -0.368883 0.20815295 0.04325179 -0.3539348 -0.44364032 -0.045138426
0.31307074 0.718376 -0.16248013 0.4164787 -0.39716178 -0.3440985 -0.40870678 0.055732884
0.22958718 -0.35256475 -0.55497414 -0.8519889 -0.14196475 0.4532953 1.0926732 0.075304046
-0.3071036 -0.3726094 0.9710277 -0.40044382 -0.15627126 0.22636783 -1.0398924 -0.85877705
0.18903771 0.3346397 -0.41771647 0.39040977 -0.8523205 -0.19180854 -0.5736052 -0.17448607
-0.40572682 0.8333803 -0.36179453 -0.16918854 0.032704636 0.28655532 0.326635 0.34534943

linear2.weight f4 [256, 256]
00000000: b214 e6bc 191e 73bd 742e dcbb 2ebb 44bc
00000010: 380d 113c 26e9 853c 7893 3bbc a6b1 d5bc
00000020: a1fc 3dbd 843d 37bd 8a1a 083d d817 a83c
00000030: 05a2 d3bd 15b2 cabc a551 f0bb cff0 96bd
00000040: 275d 10bc f8dd 56bc 62b0 523d 3800 78bc
00000050: ee49 253d 604f 93bd b49c 73bd 5863 5ebd
00000060: 0c44 c7bc 0446 2ebd 2cc1 cbbc 81db 27bd
00000070: 4a70 bebd 2934 0dbc 5a4b 11bd cdf9 243d
00000080: 50d8 b0bd 44b1 19bc 2631 a3bd 4421 463d
00000090: 4a7e 013c 185b 8d3c 5bed f8bc 321a 5cbb
000000a0: fbb3 54bd a6d9 3abd 40e0 3abb a2af 0fbb
000000b0: 319b 083c 059d eebc c8fd 5c3c a0aa d03c
000000c0: 7ffe 853d 09cc a2ba d355 16bc e886 5f3d
000000d0: ece4 ebbc 7021 073d 7c56 8b3c 09bb 743b
000000e0: 3a31 89bc 38ac 313c 1cce 73bd 4bd4 843d
000000f0: 071b bdbd b35a 0d3c ae88 acbd 26c9 54bd
00000100: 7c29 45bd 68fe cebc b801 773c 5064 58bc
00000110: f03a abbc fe05 7dbd ec31 25bd c22a 25bd
00000120: d188 65bd 1abb 633d 9250 1cbd 4710 5dbd
00000130: ca9f fd3c f30c 38bd 3c6c 59bd a502 17bd
00000140: a86b fbbc 5551 d03b 089e 163d 745b a33c
00000150: c4eb b53c d93c 073c 8777 9c3c fb20 cabc
00000160: 3c23 c3bd 128a a23c 1f14 b63b 1a73 3dbd
00000170: e06f 103b 3cf4 43bd f855 9c3c 7c85 263d
00000180: c432 0dbd e113 ccbd c8a3 34bc ee3d 45bb
00000190: 5fbb 98bd c0c7 0ebd f862 9a3c 12e8 1a3d
000001a0: e0af d03c dab2 a63b 8d43 96bc a7a1 0d3c
000001b0: 2d83 37bd 72b0 7c3c 6614 a0bd 7df6 6cbd
000001c0: 0068 3dba 7b2d 5fbd ad4d c4bd cce3 393d
000001d0: ce70 56bd 9c7a 8ebd 7834 8c3c 81a6 8cbd
000001e0: 5a76 a6bd 7655 ecbc 847d 2c3d c4c6 2dbd
000001f0: de23 6dbd ae05 f1bc 5403 0cbd a0dd 2bbc
00000200: 9241 61bd 3c57 043d d0d7 f0bb d46e f9bc
00000210: 4af5 e63c 0a9b f0bc dca4 41bd 5e58 78bb
00000220: 8f85 5839 c897 74bd cbc1 4fbd b4f7 2fbd
00000230: 8c3b afbd 012d 23bd 9ca9 843b 502f a7bc
00000240: 0ecf 3a3d a805 7bbd 703d 4e3c 0297 073d
00000250: 10ab 193d efa6 0cbd 6d07 35bd c865 5cbd
00000260: 65f2 8fbd 7354 a93c ce82 d0bd 6220 9ebd
00000270: 2969 d3bd 7416 893c 242f 42bc 9a69 1ebd
00000280: b65e 9dbd 7ae8 94bc 80a4 173d 1210 15bd
00000290: 35e1 51bd 3c5f c03c dd44 f93c 7074 09bd
000002a0: f0d8 63bd 3814 243c 51f3 acbd 4288 ffbc
000002b0: 4006 e5bc f537 7bbd b251 f93c a05d 3dbd
000002c0: d21f 7f3d 7dc4 08bb 547c 503d e8fc 423c
000002d0: a458 cdbd c46c de3c 4035 dabc 006d 27bd
000002e0: 539e 033b b91a 6cbd dec0 34bc b058 163d
000002f0: 2f97 95bb eb57 febb d8a0 a1bc 4eac 12bd
00000300: 9658 27bd a8ab 3fbd 73bf 343d 1d95 5dbd
00000310: b8fd 6fbd df38 d9bc 7117 243d 0cdd a4bd
00000320: 066d 69bd 47d5 c23c 4cc9 803c 3165 563c
00000330: 307d 95bd 68de 1abd 8779 94bc 846e b03c
00000340: 6e72 9abd 33c4 1d3d 324b b03c c09e c03a
00000350: 1c2a 9bbb 1fe4 4d3d c8ec 603c f174 15bd
00000360: e0c8 57bd 3553 03bd d824 f43a 2096 403c
00000370: 7a63 24bd b555 a6bc 7ace 68bd b84c 93bd
00000380: 7d72 2f3c fecf 6cbd bba8 0d3d b6b3 fb3c
00000390: 5864 27bc 5fd0 93bc bd9a 00bd de90 9bbd
000003a0: f228 093d f46b fbbc dc03 66bd 98d7 52bd
000003b0: b6f8 59bd d027 9dbc 29ed 89bd e0ba 933c
000003c0: 1ccf 55bd d4f9 193d 5bcd 363d de85 673d
000003d0: 930d 053d 118c 23bd ce51 72bd fc8f 10bd
000003e0: 7d46 84bd 0d21 b4bc 8096 293d a473 a9bd
000003f0: 88c9 44bd 7815 4abd 788c af3c bf8a 963c
-0.02808604 -0.059354875 -0.006719405 -0.012007518 0.008853249 0.016346525 -0.0114487335 -0.026085686
-0.046383504 -0.0447364 0.033228435 0.020519182 -0.10333637 -0.02474312 -0.0073339515 -0.07370149
-0.008811272 -0.013114445 0.051437743 -0.015136771 0.040353708 -0.07192874 -0.059475616 -0.05429396
-0.02432444 -0.04254724 -0.024872385 -0.04098082 -0.09298761 -0.008618393 -0.03547225 0.04027729
-0.08635008 -0.009380642 -0.07968359 0.04837157 0.007903645 0.017255351 -0.030386617 -0.003358495
-0.051929455 -0.045617722 -0.002851501 -0.0021924754 0.008337782 -0.029127607 0.013488241 0.025471985
0.06542682 -0.0012420426 -0.0091757355 0.054572016 -0.028795682 0.032990873 0.017009012 0.0037342927
-0.016747106 0.010844283 -0.059522733 0.06485804 -0.09233671 0.008627581 -0.08424507 -0.051949643
-0.048135266 -0.025267795 0.015076093 -0.01320751 -0.020902127 -0.061773293 -0.040330812 -0.04032398
-0.05603868 0.055598356 -0.038162775 -0.0539706 0.030959982 -0.044934224 -0.053081736 -0.036867756
-0.030690983 0.006357352 0.036771804 0.01994107 0.022207148 0.008254253 0.019099964 -0.02467393
-0.09528205 0.019841228 0.005556598 -0.046252348 0.002203934 -0.047840342 0.019083962 0.040654644
-0.034472242 -0.09964729 -0.011025377 -0.0030096727 -0.07457613 -0.034858465 0.01884602 0.037818976
0.025474489 0.0050872387 -0.018342758 0.008644498 -0.044802833 0.015422927 -0.07816391 -0.057852257
-0.0007225275 -0.054486733 -0.09585128 0.04538326 -0.052353673 -0.0695698 0.017114863 -0.068676956
-0.081280425 -0.028849345 0.04211189 -0.042425886 -0.057895534 -0.029421654 -0.03418286 -0.010489851
-0.054994173 0.032309756 -0.0073499456 -0.030448355 0.028193135 -0.029370803 -0.047276363 -0.0037894468
0.0002064912 -0.059715062 -0.050721925 -0.042960837 -0.085562795 -0.03983784 0.0040485393 -0.020408303
0.04560762 -0.06128469 0.01258789 0.033102997 0.037516654 -0.034338888 -0.044196535 -0.053808004
-0.07028655 0.020670151 -0.10181199 -0.0772102 -0.10322792 0.01673434 -0.0118520595 -0.03867493
-0.0768408 -0.01817726 0.037022114 -0.03639228 -0.051240165 0.023482911 0.030428344 -0.03355831
-0.05562681 0.010014586 -0.084448464 -0.031192902 -0.027957082 -0.06133266 0.030434463 -0.046231866
0.062286206 -0.002086907 0.05089982 0.011901118 -0.100266725 0.027151473 -0.02663672 -0.040875435
0.0020083382 -0.057642672 -0.011032311 0.036705673 -0.0045651416 -0.0077619455 -0.019730017 -0.035808854
-0.040855967 -0.046794564 0.044127893 -0.054097284 -0.058591574 -0.026516376 0.040061418 -0.08049974
-0.05698874 0.02378334 0.015720986 0.013085649 -0.07299268 -0.03780976 -0.018124355 0.021537073
-0.07541357 0.03851719 0.02152023 0.0014695749 -0.0047352444 0.05026638 0.013728328 -0.036488477
-0.052681804 -0.032061774 0.0018626703 0.011754543 -0.04013393 -0.02030454 -0.056837536 -0.07192367
0.0107084485 -0.057815544 0.034584742 0.030725341 -0.010216795 -0.018043695 -0.03139757 -0.075959906
0.033486314 -0.030691124 -0.056156024 -0.051475137 -0.053215705 -0.019184023 -0.06734688 0.018033445
-0.052199468 0.03759177 0.044629436 0.05652415 0.03248365 -0.0399285 -0.059160046 -0.035293564
-0.06458757 -0.021988416 0.041403294 -0.0827401 -0.048043758 -0.04933688 0.021429285 0.018376706

linear2.bias f4 [256]
00000000: ec18 a4bd 3547 7d3c cd80 603c 38ae 16bc
00000010: 46a0 1fbd b4f7 d0bd 6c49 d7bd f037 aabe
00000020: 3540 f9be 308b 34bd ab00 113d 39aa e93c
00000030: 7a66 42bd 905a abbb 800a 453c 8aaa e13b
00000040: 5e31 a7bc c962 8ebd d627 c5bc c059 5dbb
00000050: 7689 023d c412 cf3d ab70 8cbd 781e 7abd
00000060: 87a7 b0bc 1123 b6be 129f f9bc 3e22 82bd
00000070: a447 60bd 8ac2 2cbd 6f89 6dbd 25fe d4bc
00000080: f863 4abc a455 803d 8bd7 1c3d 9ce9 9a3d
00000090: c6ff 273e 94de 433d e97b bbbb 70fb d4bd
000000a0: caec cabd 5e7d cbba b8e5 923c 5f90 9fbc
000000b0: 38ca 3ebd 1afc 423a d973 c9bc 68bc c7bd
000000c0: bca6 cd3a 6857 7bbf d6c5 b3bc 6cd0 d33c
000000d0: ff86 a3bd 03bc c8bd b72f 44bd 185c 5cbd
000000e0: ef77 513c 1918 8abd 3079 c13b 4bd8 743c
000000f0: 335d c3bd e76c d73b c44c cabc e1c8 493f
00000100: b6b3 b1bc 275d b0bb 014a 29bd ea9e 22bd
00000110: 72f7 673b 3f1d 2bbd 10f2 58bd 3f8e 5dbd
00000120: c23a a5bc 571e c6bd cd69 5b3d 45d9 81bd
00000130: 18c8 ccbd 01fa 3ebd 4179 8dbd e58e 263b
00000140: 4042 61bd 113f 83bd f42a 9bbc 478b 28bc
00000150: 2512 d23c d5e3 afbc 4c44 91bd 84b5 3c3c
00000160: 744e 1e3f 562b bf3c e629 3a3c e98b bbbd
00000170: 032e dc3c ed9b b8bd a129 49bc c418 30bc
00000180: d653 debd b5e9 dabd 92a7 b3bc c8df 0dbc
00000190: 618a eabd e771 bdbd 8939 8bbd 0774 153d
000001a0: 7df4 ba3c 7adb 5ebd 93d2 873e 0d1c aebd
000001b0: c30b d3bd fa0a 04bc 0cc8 cdbd 49ad d8bd
000001c0: 1b64 233f a76e 99bd bf9e 033c 2b37 41bd
000001d0: e6db 3dbd cec8 07bd 503d a3bd ac75 a0bc
000001e0: bd59 1c3c 6297 57bc 64a0 a1ba c022 693c
000001f0: e7a1 03bb 246a 733b cf76 2cbd b763 abbd
00000200: 4151 75bb db5f 22bd aeb9 0ebd a5d8 15bd
00000210: 5878 083b fd10 f2bd 74b2 203f ea66 a5bb
00000220: 7c93 68bd 3d08 173d 0356 41bd 8ce0 fa3d
00000230: 2cad 7c3d bd34 42bc 4592 54bc 4ea9 6cbc
00000240: bb6c 10bd 8621 9cbd 9342 2c3c f25d 6dbc
00000250: 3a54 523d 61f4 e2bd ed22 49bc ca55 9dbc
00000260: 6604 a53d f7e0 15bd 9728 f0bb fc00 91bd
00000270: 47c1 90bb ee73 5cbd c95a dfbc 225b 1bbb
00000280: cedc 09bd 5e42 5e3c 0f05 fbbc 126f 65bc
00000290: 00a4 16bd f7fc 76bc 38c9 063d 41c9 593d
000002a0: 122b 97bd 28ab 63bd bf3b 99bd 0587 043d
000002b0: 0c31 593d 2066 97bd eda6 27bd f8a1 52bf
000002c0: b257 583d 5b56 1fbc 0418 0cbd 51ee ffbc
000002d0: a492 12bc df99 413c b159 403b 6ffd c2bd
000002e0: 97f0 48bc 2bbc c4bd bab3 b83e 5975 77bc
000002f0: 402c ffbb 5b08 c3bd 28ce 98bb 1163 8e3e
00000300: aef8 8ebd 7155 d2bd df31 8cbd 7330 83bd
00000310: 7e84 d53b c929 023c 1061 38bf 7518 d63c
00000320: 5f77 903c d8fc 24bd 2490 6bbd ed6b 16bc
00000330: 16e9 9bbd d31a fc3c 18ed 91bd d1f5 583c
00000340: 1733 95bd 251f edbc 6de5 34bc 43dd 3dbd
00000350: 130c 6bbc 7937 7c3c af25 9f3a 4e8b d2bd
00000360: 9ccb 0fbd 7253 9dbd b0cf 463b 6fb5 e5bd
00000370: 66c6 7dbd 219f aa3e 2ae6 873c 393c 0a3d
00000380: 8651 e0bd 3edd 573b 0fea 91bd 9adb ac3b
00000390: 6577 a2bc 4eee 83bd f8fd 2bbd b970 183d
000003a0: b430 b4bc 337f 1cbd 321e 213d 4e61 f5bc
000003b0: 4e5d 93bd ee1b 963d d69c 3ebd 128a 8ebc
000003c0: 3cc0 6cbd 509c 6fbd 724e 95bd 8d3f 41bd
000003d0: 61f5 c8bd fdc1 52bd 7268 86bd 84fc 6bbd
000003e0: c971 0ebd 9944 3ebd 45d6 a0bc 4881 96bd
000003f0: ab80 0bbc 2513 97bd c921 633e 2fd1 d4bd
-0.08012566 0.015458872 0.0137025835 -0.00919681 -0.038971208 -0.102034956 -0.10512051 -0.33245802
-0.486818 -0.044078052 0.035401028 0.028523551 -0.04746101 -0.0052293018 0.012026429 0.006886785
-0.020409282 -0.069524355 -0.024066847 -0.003377542 0.031869374 0.10111001 -0.06857427 -0.061064214
-0.021564258 -0.3557363 -0.030471358 -0.063541874 -0.05475582 -0.042177714 -0.057992395 -0.026000092
-0.012352936 0.06266335 0.038291495 0.07564089 0.16406164 0.04781969 -0.0057215584 -0.103995204
-0.09908445 -0.0015525033 0.017931804 -0.019478021 -0.04657957 0.0007438079 -0.024591373 -0.097527325
0.001568995 -0.98180246 -0.021944921 0.02585622 -0.07984733 -0.098014854 -0.047897067 -0.053798765
0.012784942 -0.067428775 0.0059043393 0.014944146 -0.09539261 0.0065742615 -0.024694808 0.7882214
-0.021692138 -0.0053821984 -0.04133034 -0.039702334 0.0035395292 -0.041775938 -0.052965224 -0.054090735
-0.02016962 -0.096737556 0.053567696 -0.06340269 -0.09999102 -0.04662514 -0.06907893 0.0025414762
-0.05499482 -0.06408513 -0.01894138 -0.010287113 0.025643418 -0.021470943 -0.07093105 0.011517886
0.6183846 0.023336094 0.011362528 -0.09157545 0.026877409 -0.090141155 -0.0122779915 -0.010748092
-0.10855834 -0.10689107 -0.02193049 -0.008659311 -0.11452175 -0.09250241 -0.06798083 0.036487605
0.02282166 -0.054408528 0.26527843 -0.08501444 -0.10304978 -0.008059258 -0.100479215 -0.105799265
0.63824624 -0.074918084 0.0080334535 -0.047171753 -0.04635229 -0.033150487 -0.07970679 -0.01958736
0.00954288 -0.013158651 -0.0012331125 0.014229476 -0.0020085515 0.0037142122 -0.042105492 -0.083686285
-0.0037432464 -0.039642196 -0.034845047 -0.03658356 0.0020823684 -0.118196465 0.627723 -0.0050476687
-0.056781277 0.03687309 -0.047201168 0.1224986 0.061688587 -0.011853394 -0.0129743265 -0.014444662
-0.035259943 -0.076235816 0.010513919 -0.01448773 0.051349856 -0.11081768 -0.012276393 -0.019205946
0.080574796 -0.036591496 -0.0073290574 -0.07080266 -0.0044175717 -0.053821497 -0.02726497 -0.0023705442
-0.03365784 0.013565628 -0.03064206 -0.014003532 -0.036777496 -0.01507496 0.03290674 0.053170446
-0.07381262 -0.05558315 -0.07482099 0.032355327 0.05302529 -0.07392526 -0.040930677 -0.82278395
0.052818008 -0.009725179 -0.03420259 -0.031241568 -0.008946095 0.011816471 0.0029350335 -0.09520995
-0.012264392 -0.09606203 0.3607462 -0.015103661 -0.0077872574 -0.09523078 -0.0046632476 0.27809957
-0.06981026 -0.10270203 -0.0684545 -0.06405725 0.0065160384 0.007944533 -0.72023106 0.026134709
0.017635046 -0.040280193 -0.05751051 -0.009181005 -0.07612817 0.03077451 -0.071253 0.013242201
-0.07285135 -0.028945515 -0.0110410275 -0.04635359 -0.01434614 0.015394085 0.0012141968 -0.102804765
-0.035106286 -0.076819316 0.0030336194 -0.11216246 -0.061956786 0.3332453 0.016589243 0.03374884
-0.10953049 0.0032938267 -0.07124721 0.005275202 -0.019832322 -0.064419374 -0.04199025 0.037216876
-0.02199588 -0.038207244 0.039335437 -0.029953625 -0.07195531 0.07329546 -0.04653629 -0.017399821
-0.057800516 -0.05849868 -0.07290353 -0.047179747 -0.09812427 -0.051454533 -0.0656289 -0.057613865
-0.034776483 -0.04645214 -0.019633422 -0.07348877 -0.008514564 -0.073766984 0.22180857 -0.10391461

linear3.weight f4 [256, 256]
00000000: 705f ed3c cad6 443c 3a47 01bd f838 6a3d
00000010: 8ada 4d3d bc30 0bbc ef69 873d 4314 eabc
00000020: cc7e cfbd 13cf 9cbc 74d5 e0bc 7128 23bd
00000030: 9b2b 5dbd 6d5a 853d 882d 213d 13ad 613c
00000040: 1aca 0abd ec81 5ebd b408 fe3b 6d10 bf3d
00000050: d79d 7cbd 242e 8a3d 70e3 053c 34cc 17bd
00000060: 7c1f 723d a98e 06bd 5ef2 173d 5e1d 8d3c
00000070: a540 33bd e2d2 393d faaf 02ba 7727 063d
00000080: 5cb0 123c 2652 123d b0f7 30bd 737e 503d
00000090: 60be 81bc 8301 dfbc 4a99 403d 9f77 d2bc
000000a0: da25 653d a5f7 e1bc cd8e 65bd bfc3 103d
000000b0: 8ccb 8abd c613 283d 65ca 3abc 1889 803d
000000c0: 1e5d e2bc f264 0ebe 72d0 80bc faee 2f3d
000000d0: 6066 803c 643a 383d 2879 0b3d a845 28bd
000000e0: 30d8 3fbd 85fd a93c bc8f 163d 387c 553d
000000f0: 912e 98bc e0f2 883b c66b 613d e97f b5bd
00000100: b439 0bbb d184 d63c 3b19 fd3b 67fb 973c
00000110: 4480 953c b036 af39 a85d 423d 9ea0 423d
00000120: a049 31bc c33a ee3c d678 85bd e1f6 393d
00000130: 5a8f 1a3d 3b65 f7bc d0a5 6cbb 4467 12bd
00000140: efa5 133d a631 083c 5721 493d 8e24 6f3b
00000150: 45fa 76bc eda7 b8bc f0d1 4a3d 9b38 c1bc
00000160: 8476 d0bc 5cb4 0fbb 225f 77bd 0f7d 673d
00000170: e5f4 33bd 44a5 3ebd 2c7e a8bc a89e 4e3d
00000180: a4cc 23bc b3f0 613d b6b3 073d 9d03 453c
00000190: 982d 33bd 3186 713d 53db a2bc 18e6 323d
000001a0: e63e 2abc 6561 71bd 6939 a8bd 2305 e03c
000001b0: d58c 833c 8520 343d 5136 013d c62d 5abd
000001c0: 0489 2abd f51f 633d fce7 c7bc 9299 343d
000001d0: 6522 783d 8f74 26bd 3b4c ca3c 14cd 5ebd
000001e0: 8cb8 d2bc 6510 1f3b 943b 5b3d 6278 b03b
000001f0: 3c8f f83c d1e6 153d 6c7f 7c3c 6cb2 ecbc
00000200: 62a8 2a3d 4265 ad3c 37cf b73b 7b48 ccbc
00000210: 9bcd dd3c 5707 323d f0e1 d9bc dc03 1f3d
00000220: 4819 bfbc 970a 23bd 90cd 44bd b344 2a3d
00000230: d166 f43b 60b2 7e3c 1cae a9bb 9a00 1c3c
00000240: a059 24bc 448e 69bd 682d b83c 5f72 553d
00000250: 68fe 15bd 09ec 883c a7a8 563d 0810 7cbc
00000260: c686 58bd 6389 5fbd 933f 9b3d d696 333d
00000270: a81d 1b3c 5d63 09bd 4e41 18bd 276b a43c
00000280: e19a d7bc dcfc 3cbd ef8f 4abc da84 823d
00000290: d1b5 24bd e6c8 7f3d ed9b 46bd 38b0 7f3c
000002a0: 4cd3 fabc 42bb 64bd 3ebf 813d 0164 00bd
000002b0: 0bdc 25bc 3e33 cd3c e0ff d93b c973 83bd
000002c0: a829 1cbd 5b2c 773b bb7b 19bd 90b0 d33b
000002d0: 3e03 0ebc 23c3 3f3d 5f87 08bd e062 39bc
000002e0: 6448 7f3d dc5a bdbc a8d1 b0bd cd77 7b3d
000002f0: 8840 03bd e2f2 2ebd 08bc ddbc d6ef b8bd
00000300: 92e7 813c 20e2 d03a 2b51 a5bd 1cfd eeb9
00000310: 5286 673d 517c 283c 47e1 fd3c 39d5 3fbd
00000320: baec 59bd 4f55 97ba f3ca ad3c b52f 263d
00000330: aec8 e0bb 338d 2c3d c124 a7bc 2eb1 30bd
00000340: aca4 c6bc 6ca7 6bbb a862 40bc ab0d 963d
00000350: d471 c83c 4eae 6abd 83f7 6abd 46a9 f9bc
00000360: 7e94 62bd b952 76bb 1f91 bfbc fbae 86bb
00000370: b834 263c 563f abbd 7965 e3bc e734 6fbc
00000380: 302a f13c db3f e43c 5498 e53c a890 47bc
00000390: 2ba5 333d 61b4 063b 9495 2c3d 7d8e eebc
000003a0: 200e c23c ba71 2a3d 3d5f 42bd 5893 78bc
000003b0: 87c6 9abc 54e2 d73b 65b7 87bd 4cfa a7bc
000003c0: 44ba a3bc 90ee 2ebd 60e1 7c38 cde8 433d
000003d0: 2793 023c 58d7 333d beb4 153d 0d62 503d
000003e0: 5abd 44bb 570b cdbc df3b e53c 5db2 003c
000003f0: 1805 89bb ae2f 013d d4ab a3bc 2075 363d
0.028976172 0.0120141 -0.031562068 0.057183236 0.050257243 -0.008495506 0.06612002 -0.028574115
-0.101316065 -0.01914171 -0.027445532 -0.03983349 -0.053996664 0.06511388 0.039350063 0.013774174
-0.033884145 -0.054323122 0.0077525023 0.09329305 -0.061673965 0.06747082 0.008171901 -0.037059978
0.059112057 -0.032850895 0.037096374 0.017225917 -0.04376282 0.04536713 -0.0004985329 0.03275248
0.00895318 0.035722874 -0.043204963 0.05090184 -0.015837848 -0.0272224 0.047021188 -0.025691805
0.0559443 -0.027583906 -0.05604439 0.035342928 -0.06777105 0.041034482 -0.011400794 0.062761486
-0.027632292 -0.13905695 -0.015724394 0.042952515 0.015673816 0.04497756 0.03405109 -0.041082054
-0.04683703 0.02075077 0.03675817 0.052120417 -0.018576892 0.0041793436 0.05503442 -0.088622876
-0.002124411 0.026186379 0.007723955 0.018552495 0.018249638 0.00033419346 0.0474526 0.047516458
-0.010820776 0.029080754 -0.06517188 0.045401458 0.037734367 -0.030199638 -0.0036109574 -0.035743013
0.03604692 0.008312618 0.04910406 0.0036490294 -0.015074317 -0.02254101 0.04951662 -0.023586562
-0.025447138 -0.002192757 -0.06039346 0.05651575 -0.04393472 -0.04654433 -0.020567976 0.050444275
-0.009997521 0.05516119 0.03313037 0.012024787 -0.043744653 0.058965866 -0.019879973 0.043676466
-0.010390973 -0.058930773 -0.08214075 0.0273462 0.016058365 0.043976326 0.03154594 -0.05326631
-0.041634575 0.0554504 -0.024402611 0.04409177 0.060579676 -0.040638503 0.024694553 -0.054394796
-0.025722764 0.0024271247 0.053523615 0.0053854445 0.030341737 0.036597077 0.015411239 -0.028893672
0.04166449 0.021166448 0.0056094187 -0.024936905 0.02707558 0.04346403 -0.026596993 0.03882204
-0.023327485 -0.03980502 -0.048047602 0.041569423 0.0074585457 0.015545458 -0.005178226 0.009521628
-0.010031134 -0.05702044 0.022482589 0.052111026 -0.036619574 0.016714113 0.052406933 -0.0153846815
-0.052862905 -0.05457438 0.07580485 0.04384502 0.00946752 -0.033542026 -0.037171654 0.020070625
-0.02631897 -0.046139583 -0.012363418 0.06372996 -0.040212456 0.06244745 -0.048488546 0.015605979
-0.030618332 -0.055842645 0.06335305 -0.03134537 -0.010123263 0.025048848 0.006652817 -0.06418569
-0.038125664 0.0037715647 -0.037471514 0.006460257 -0.008667765 0.046816956 -0.033332225 -0.011315078
0.062324896 -0.023114614 -0.08633739 0.061393548 -0.032043964 -0.0427121 -0.0270672 -0.0903012
0.015857492 0.0015936531 -0.08072122 -0.0004558348 0.056524582 0.010283546 0.03099121 -0.046834204
-0.053204276 -0.001154581 0.021214938 0.04057284 -0.0068598604 0.042126846 -0.020403268 -0.04313772
-0.024248444 -0.0035957946 -0.0117422715 0.07326826 0.02446834 -0.057295136 -0.05736495 -0.030476224
-0.055317394 -0.0037585928 -0.023384629 -0.0041102148 0.010144405 -0.0836169 -0.027758347 -0.014600015
0.029439062 0.02786248 0.028026737 -0.012180485 0.04385869 0.0020554292 0.042134836 -0.029120678
0.023688376 0.041612364 -0.047454108 -0.015171848 -0.018893493 0.0065882597 -0.066267766 -0.020505093
-0.01998628 -0.04270798 6.029138e-05 0.047829438 0.007969654 0.04390654 0.036549322 0.05087476
-0.003002009 -0.025029821 0.02798265 0.007855025 -0.0041815154 0.03153961 -0.019979395 0.044545293

linear3.bias f4 [256]
00000000: e816 e43b 1a3a 2f3e 04f0 d4bd 8f75 bcbd
00000010: 3efa 0bbe 2eae e03d 0a1c 4b3f 07f9 e2bd
00000020: bd02 a63c 73f3 40bd ae67 7ebd b1d4 d2bd
00000030: 7332 64bd 21e2 a13c 84a2 11bd 7a30 fabd
00000040: c370 abbd ef3b 12bc 1787 4ebe 7a49 71be
00000050: b52f 20be 05ca 143f 866a 333d e093 d8bd
00000060: 63af 4fbe 38c7 fe3e a643 4fbe eaff 08be
00000070: bc71 94bd 3669 8bbe bc9e 17be aa0a 8abd
00000080: b8f5 f0bd e6f1 8cba 4546 143f fc1c 06be
00000090: 21f0 e3bc a6fd 563f 917e 783d 925d c6be
000000a0: cb0f 76bd 3e4d 28be 4f66 593f 1fe0 1d3e
000000b0: c907 223f fbc8 16be a52e 5abc 11ea 96bd
000000c0: b790 5c3e beae e53e e234 5b3f 7071 41be
000000d0: e7df b9bd c778 2abe 1beb babd fab1 64bd
000000e0: 2a61 4a3e a41e b9bd b1ca 903e cab3 1fbd
000000f0: b37e 95bd c414 ac3e 16f6 f63e 0147 233e
00000100: d8ce 86bd 1fe7 ee3c 6254 b93e 8446 95bd
00000110: 9abf f9bd b028 163e bcde 4f3c 7f25 fdbb
00000120: 67ac ce3e c90b 44bd ec00 09bd 320c 26be
00000130: 178a 63bd 29a4 56be 6499 2fbe 0895 4c3e
00000140: f091 23bd 2806 c2bd 25b2 09be 7036 0bbd
00000150: 4ebd c93e 000a b2bd b988 17be 41c7 003e
00000160: a2bb f43c f1f0 a9bd 3c0f bc3e c761 b3bd
00000170: b928 efbd 674f 0cbe a67d 3abc 11bf b5bd
00000180: ff3c 423f 317b 7dbd c51d 593d ddf2 18bd
00000190: 3b42 463e 3597 ba3d a1a3 6cbd 560e 243f
000001a0: 12cb 263e 4918 e8bb 6b32 08bd 64b4 a3bc
000001b0: f4ab 953d 4a15 12be 9eca 99bb f845 f6bd
000001c0: 38d8 993d 5b0e d6bd ece9 82bc e0c1 f1bd
000001d0: 1e95 2cbe d635 3ebe 20a2 953c 93e5 bbbd
000001e0: 8315 1ebe dc70 213e feec 91bd d924 a63e
000001f0: 0e47 a93f 8d32 4fbe 5200 babd 41d7 a4be
00000200: 71a8 0fbe 2640 54bd 69d0 003f 0f55 c2bd
00000210: 94bf 1abd 90b5 543e 2a72 38bc 7117 9abe
00000220: 0871 74bc 05e3 85bd db44 73be 96bc 763e
00000230: a907 5abe f946 f4bd 74ef 163e 3139 d43e
00000240: 5524 47be fdf7 30be 2102 64bd 9e06 523d
00000250: f6d7 24be c1c7 d7bd a825 70bd ac33 8c3e
00000260: d1e0 4dbd 7a19 d03c 4fff 00be 4646 9dbc
00000270: 8b64 afbd 6e27 57be 226c 28bf 69d4 023e
00000280: a6d3 81bd 81a2 06be 6763 13be 7a62 96be
00000290: 5430 c13d 0723 433e 7784 d03e e74c f83f
000002a0: 2306 cd3c ec05 1abe db4a 0ebd 725b 09be
000002b0: da82 013c d320 ccbd 9840 c33e 8129 3a3f
000002c0: 4d5f a4bd 7bf4 d4bd d571 8ebd 2df0 c9bd
000002d0: 8a86 1abe ab3d 2ebe 8218 523d 0055 c43e
000002e0: 0c80 103d a521 ddbd 151e d6bd 2c71 aebc
000002f0: 4e54 f8bd 5e52 0d3f dcb0 513e 21e0 14be
00000300: 9f01 39be 55ee 983e 0772 56bd 66bf 7c3f
00000310: a627 9fbc ef55 32be fcc1 ffbc d14b 67bd
00000320: 4ea4 973c f887 673f 3e16 ffbd 3004 79bd
00000330: 95f2 ecbd 29c7 abbd 26d2 43bd cdb0 8ebe
00000340: 4fd2 a53d a523 b3bd b837 cfbd b320 7fbc
00000350: 3234 9cbd 74e9 f33d 2645 8ebd 9276 ab3e
00000360: 4973 cdbc 5e2b 42bc 5646 0cbe 660c 62bd
00000370: c888 00be 4ba2 203f 986a 28be e913 f1bc
00000380: 858f adbd 76ab 483e c0dd afbd fc38 86bd
00000390: b1ac 83bb 4c05 96bd b997 12be 4567 8bbd
000003a0: d9dc b0be 43ec 553d ccc5 b5bb 8e49 c73d
000003b0: fe74 4bbe 766b c9bd 76ae a33e fa53 48be
000003c0: 06ce 843d cb9e 723d ab2a 9fbd 7d64 ad3f
000003d0: d47c 823d c434 73bd 6ac7 5bbd a891 af3f
000003e0: 7269 babd 0356 dfbd 4129 95bd 6563 473f
000003f0: cf71 413e 3b17 0140 0170 05be e0e4 803e
0.0069607385 0.17112008 -0.10397342 -0.0920211 -0.13669679 0.10970722 0.7933966 -0.110826544
0.020264978 -0.04710717 -0.062110595 -0.10294474 -0.055712175 0.019761147 -0.035555378 -0.122162774
-0.08371117 -0.008925422 -0.2016872 -0.23563185 -0.15643199 0.5812076 0.04380276 -0.1057508
-0.20281748 0.49761367 -0.2024065 -0.13378873 -0.072482556 -0.27228707 -0.14806646 -0.06740315
-0.11765617 -0.0010753244 0.5791972 -0.13096994 -0.027824463 0.83980787 0.060667578 -0.38743263
-0.060073655 -0.16435716 0.84921736 0.15417527 0.6329313 -0.14725105 -0.013316785 -0.073688634
0.2153958 0.4485988 0.8562757 -0.18890929 -0.09075909 -0.16647635 -0.09126874 -0.055833794
0.19763628 -0.09039047 0.2827964 -0.03898982 -0.072995566 0.33609593 0.48234624 0.15945055
-0.06582421 0.029162942 0.3619719 -0.072888404 -0.12194748 0.14663959 0.012687381 -0.007725417
0.40365908 -0.0478628 -0.033448145 -0.1621559 -0.055551615 -0.2096106 -0.17148358 0.19978726
-0.0399341 -0.094738305 -0.13446863 -0.033987463 0.3940224 -0.086933136 -0.1479825 0.1257601
0.029874627 -0.08297909 0.36730373 -0.08758884 -0.11677689 -0.13702165 -0.011382496 -0.08874334
0.7587432 -0.061885063 0.053006906 -0.037340987 0.19361202 0.09110872 -0.057773236 0.64084375
0.16288403 -0.007082973 -0.033251207 -0.019983478 0.07308188 -0.14265934 -0.0046933433 -0.12025064
0.075119436 -0.10451957 -0.015980683 -0.11804557 -0.16853759 -0.18575224 0.018265784 -0.09174647
-0.15437894 0.15765709 -0.07125281 0.32449988 1.3224809 -0.20234127 -0.09082092 -0.32195476
-0.14029099 -0.05181899 0.5031801 -0.0948888 -0.03778036 0.20772386 -0.011257688 -0.3009601
-0.014919527 -0.06537441 -0.23756735 0.24095377 -0.21291985 -0.119275995 0.14739782 0.41449884
-0.19447453 -0.172821 -0.055666093 0.051275842 -0.16098008 -0.10536147 -0.05862966 0.27383173
-0.05026323 0.025402773 -0.12597392 -0.019198548 -0.08564099 -0.21011135 -0.6579 0.1277634
-0.06339197 -0.13147928 -0.14393388 -0.29372007 0.09433046 0.1905633 0.40726063 1.9398469
0.02502734 -0.15041322 -0.034739356 -0.1341379 0.007904733 -0.09967198 0.3813522 0.7271958
-0.0802599 -0.103981934 -0.069553055 -0.09860263 -0.15090385 -0.17015712 0.051292904 0.383461
0.035278365 -0.10797433 -0.104549564 -0.021294199 -0.12125455 0.5520381 0.20477623 -0.14538623
-0.18067025 0.29869333 -0.05235484 0.9872955 -0.019428086 -0.17415594 -0.031220429 -0.05646879
0.018510964 0.90441847 -0.12455414 -0.06079501 -0.11569706 -0.08387596 -0.047807835 -0.27869263
0.08096754 -0.08747033 -0.101180494 -0.015571761 -0.07627143 0.11909762 -0.06946783 0.334889
-0.025079386 -0.01185116 -0.13698706 -0.055187605 -0.12552178 0.6274764 -0.16446912 -0.02942844
-0.0847464 0.19596657 -0.08587217 -0.06553838 -0.004018389 -0.07325229 -0.1431569 -0.068068065
-0.34543493 0.05222727 -0.005547261 0.09730826 -0.19868848 -0.0983495 0.3196904 -0.19563285
0.06484608 0.059233468 -0.0777181 1.3546292 0.06371465 -0.059376493 -0.053656973 1.3716326
-0.09102143 -0.10905077 -0.07283259 0.7788604 0.18891071 2.0170429 -0.13031007 0.25174618

linear4.weight f4 [3, 256]
00000000: 2135 053d f68a 0f3e 127e 1e3c 7f38 1b3d
00000010: bf50 4dbc 8dc1 6a3d 7f33 f23d f16b e83c
00000020: 9aa8 38be 5532 1abd 4d4d bb3c ef91 ccbc
00000030: 9a36 6a3d 7812 12bd 0b65 b53d 0a4e afbc
00000040: 70d7 59bd 268f 0abe 8126 043d 42ec 843d
00000050: 5b1d d13c 4226 453e e3be 1dbd d9eb b93b
00000060: f5f5 60bd 484a 67bd 8a02 90bd 4309 93bc
00000070: 0b3e c03c 61f3 3abc 361a 9d3c 83f2 c4bc
00000080: a0f2 593d a896 213d 1824 e13b 8c95 ddbb
00000090: 9e42 c93c fa12 65bd 0fb1 82bd d10c 1c3d
000000a0: c743 d53c 7365 43bc 5ddb a5bc 1ce0 8cbc
000000b0: 642e 9fbb 90e3 3fbd 84f8 8dbd f583 fd3b
000000c0: efdd 64bd 0722 6b3e 4c8d 07be 8f40 4c3d
000000d0: 04b9 283c a61d ba3b 2b14 dabc c1a7 16bd
000000e0: df6a 60bd 0310 00bd 301c ccbd eb57 c23c
000000f0: 842c d43b 1e3b ccbd 839d 1bbd 6aab cfbd
00000100: 5441 07bd 8266 233e 9bbb 983d 8e03 d13c
00000110: f743 9b3c c640 e43c 22b0 82bc ee2e ffbc
00000120: 0383 57bd 70d1 0ebb 2469 4bbc 134d 33bd
00000130: d7ea 683d 62b8 443b 0ecc 403a 9b7f 863a
00000140: 6279 babd 82af 5c3c b7a0 6ebc d0f6 fdbd
00000150: 68a3 9fbe a3b6 c73c d480 bcbc b6d8 373d
00000160: 569d 163d 5aa4 5b3c 1287 e83d 940d 1dbc
00000170: ef3f 853c ba9c d63d f8ca e43c 8b7e 973e
00000180: 638c 3bbe c5cc 45bd 51d4 813c 394c b53c
00000190: 379a e9bd ff46 e73d 71ad d83c c92e 89bd
000001a0: 655a 39be 1e3f 5a3c 8877 bc3b ca2f cbbb
000001b0: c6e0 1fbd 652d 88bd 9c33 beba 0550 54bd
000001c0: e77d 05bd f3fe ffbc 7487 00bb d1d5 0e3d
000001d0: 9a58 b1bd 2803 43bc 8567 e03d d5a8 4d3d
000001e0: fb7c 863c aa92 92be 7b67 f4bc 2088 1bbd
000001f0: 64c8 1ebd fee4 803c bfdd 253d 8037 a43b
00000200: a47c 92bd 69b6 80bc ed15 b1bd 608b a3bc
00000210: d825 8abc 9cb0 c8bd ba5f 33bb 28a8 12bd
00000220: 72ae 493d 014e 4a3c 16c7 293b a416 41bd
00000230: 1914 c03c f231 f1bc c2be 053d 0172 e839
00000240: 68b9 ff3b bebe d4bc 0061 2b3d 1cc7 22bd
00000250: 4378 193d 5f0f 1a3b b714 283d daf9 bcbd
00000260: a4d1 94bc 5640 37bc f329 523d bb35 7ebb
00000270: f650 afbc 5970 2b3d 26de 1d3b 7ff0 043e
00000280: 3a5a 893d cf60 84bb 6c3f 553d 1ba7 2a3e
00000290: ff6f edbd 9935 913d 8a72 643d cc6d b63d
000002a0: 5ef8 373d 7636 9abc ae43 1dbd e640 1cbd
000002b0: 720a b13c 98bb e239 3da6 fd3c 90c7 98bd
000002c0: 8bdd 253e e1cd f3bb b1e1 333d 570c 873d
000002d0: 90c5 a53d 912a 2fbc 0ad0 e13c 3bcb b73d
000002e0: 59ee 0b3d 073a c6bc c116 293c 7303 44bc
000002f0: 0f4a 173d fec2 2e3d d7bf 7e3c e3a2 b4bc
00000300: 5681 28bb 90b7 8cbd 9d3f 88b9 255a 853d
00000310: 7520 1abd 05de 9b3c 12b0 23bd ff02 39bd
00000320: cf91 1c3d 095e 20be 4dc8 82bd 2532 4e3b
00000330: 7d72 b93c bf0e cebc e591 7c3c 5bf7 903d
00000340: 2a5f f63b 4e59 a43b 46c5 45bc bf52 ea3c
00000350: e588 e73a 7db9 8cbb 1d53 00bd a165 45be
00000360: d011 823b 2229 22bd 2a3b ecbb 846f dfbc
00000370: fa2c 8d3c d0a7 2ebd fd23 583d df53 113c
00000380: 0f5c 03bc b4d0 b43c b895 843a 0251 a1bb
00000390: 1177 713c f29c 1c3b 9035 54bd 7647 ae3c
000003a0: eb25 353e 0e4e 63bc 1ee4 093d be3b f33b
000003b0: 390a 553b c544 2bbd 0476 b53c 4f5b dbbb
000003c0: b649 113d c956 2cbc 1692 d3bc 7613 88bd
000003d0: a6d1 413d fe95 3e3e 24f1 45bc b64b 623d
000003e0: 89ec 073d dfb9 273c 9263 853c 6634 8b3c
000003f0: 7a35 7b3e 074f e63d 2b60 f8bc 3a25 ce3c
0.03252137 0.14017853 0.009673612 0.037895676 -0.012531458 0.05731349 0.11826228 0.028371783
-0.18033066 -0.037645657 0.022864008 -0.02497193 0.05718098 -0.035662144 0.08857163 -0.021399517
-0.053183973 -0.1353117 0.032263283 0.06490375 0.025526693 0.19252875 -0.038512122 0.005673867
-0.054922063 -0.056467324 -0.07031734 -0.017948752 0.023467084 -0.011410565 0.019177537 -0.02404142
0.0532099 0.039450318 0.006870758 -0.006762212 0.024567898 -0.0559263 -0.063814275 0.03809816
0.026033295 -0.011926043 -0.020246202 -0.017196707 -0.004857825 -0.04684788 -0.06932166 0.007736678
-0.055875715 0.22962199 -0.13237494 0.049866255 0.010298017 0.005679804 -0.026620945 -0.036781076
-0.05478942 -0.03126527 -0.09966314 0.023723563 0.0064750332 -0.09972213 -0.03799201 -0.101401165
-0.033021286 0.15957072 0.07457658 0.02551439 0.018953307 0.027862918 -0.015953127 -0.031150308
-0.052615177 -0.0021792315 -0.012415204 -0.043774676 0.056864586 0.0030017127 0.0007354625 0.0010261418
-0.09105183 0.013469579 -0.014564685 -0.124005914 -0.31179357 0.02437908 -0.023010649 0.044884406
0.03677114 0.013405884 0.113538876 -0.009585757 0.016265837 0.10479112 0.027928814 0.29588732
-0.18315272 -0.048290987 0.01584831 0.022131072 -0.11406367 0.11292838 0.02644989 -0.06698377
-0.18100889 0.013320712 0.005751554 -0.0062007653 -0.03903272 -0.06649283 -0.001451123 -0.051834125
-0.032590773 -0.031249499 -0.0019611986 0.03487188 -0.086594775 -0.011902608 0.10957245 0.05020984
0.016417017 -0.2862752 -0.0298345 -0.037971616 -0.038765326 0.015734192 0.040494677 0.005011499
-0.071526796 -0.01571198 -0.0864676 -0.01996392 -0.016863748 -0.097993106 -0.002737029 -0.035804898
0.04923863 0.012347699 0.0025906018 -0.047140732 0.023447083 -0.029442761 0.032652624 0.00044335428
0.0078040846 -0.02596986 0.041840553 -0.039740667 0.037468206 0.0023507697 0.04103538 -0.09227343
-0.01816637 -0.0111847725 0.051309537 -0.003878935 -0.02140091 0.04185519 0.002408871 0.12982367
0.067066625 -0.004039861 0.052062437 0.16665308 -0.11593627 0.07090301 0.055773295 0.08907661
0.044914596 -0.018824797 -0.038394623 -0.03814783 0.021611426 0.00043245847 0.030963058 -0.074599385
0.16197793 -0.007440314 0.043916408 0.065941505 0.08094323 -0.010691301 0.027565021 0.0897431
0.034162853 -0.024197591 0.010320366 -0.011963713 0.036935862 0.042666428 0.015548668 -0.022050327
-0.0025711856 -0.06870949 -0.00025987337 0.06511334 -0.03762861 0.019026766 -0.039962836 -0.045168873
0.03822499 -0.15660872 -0.063858606 0.0031462994 0.0226376 -0.025153516 0.015415643 0.07078429
0.0075186687 0.0050155288 -0.012070959 0.02860391 0.0017664699 -0.004294573 -0.031329263 -0.1927705
0.0039694086 -0.03959001 -0.0072092013 -0.027274854 0.01723336 -0.042640507 0.052768696 0.008870094
-0.008017554 0.022072174 0.001011542 -0.004922987 0.01473786 0.0023897258 -0.051808894 0.02127431
0.17690246 -0.01387359 0.033664815 0.0074228933 0.0032507314 -0.04181363 0.022151 -0.0066942344
0.035470687 -0.010518738 -0.025826495 -0.06644337 0.047319077 0.18611905 -0.012081418 0.055247985
0.033184562 0.010237186 0.01628283 0.016992759 0.24532118 0.11245542 -0.030319294 0.025164235

linear4.bias f4 [3]
00000000: 0028 213f 46c2 7b3f abf3 ad3f
0.6295166 0.9834331 1.3589987
