models/defense_model_v2.pth (torch, 538860 bytes, 8 tensors)

linear1.weight f4 [256, 5]
00000000: 5b80 75bd 87ba cfbe 94b5 fdbd 9853 98be
00000010: 45c1 413f 2f10 a2be a1d1 9bbd a9be 13bf
00000020: 0a49 423d 8573 583f f9b6 adbe fb5a a5be
00000030: 8cbc 68bd 9a0e 7ebf 83c1 183f d677 2f3e
00000040: f80f 8fbd 4320 013e 49ab 1940 a9c5 01bf
00000050: 7ecc 8ebe 6b9e 61be 747c 83be 8c9c f5bd
00000060: 20d1 553e 746d 933d de4a 87bd 57f1 97bd
00000070: e38e 1dc0 7d0e d6bc 9713 03bf caab 32bd
00000080: 6d63 0dbe 0987 75bf 84ee 39bd 874c 96be
00000090: a40e 3739 6dd7 503e f8c7 8c3f 38be 4340
000000a0: 054f fe3c 3b1f 37bd 4780 b7ba b8e5 e83f
000000b0: f07f 81bf d45b dabe 805b dbbe 298b b5bc
000000c0: a676 a6be 7a54 5c3d 2466 bfbe 9e5b 19be
000000d0: 12ba 8fbb 0c1e 99bd 9607 81bd 538b 4fbf
000000e0: 49ac 58be e8bd 1c3d 8375 6c3f 39d0 213f
000000f0: 905f 183e e131 963b 59fa 28bc d158 dd3f
00000100: ec15 0f40 93ee b6be e006 4b3d fa2f bc3e
00000110: df01 0f40 3ee9 0bbe 5e7c 49bd 6473 abbe
00000120: 20fd 043d 3621 2040 911d 05c0 b3a1 02bf
00000130: 29c6 32bf 1801 123e b784 ef3f a218 d33c
00000140: c48c a2be 1c73 05bf 51dc cf3e 6d17 0dbf
00000150: fd29 25bf 7d34 55be a2bd 0ebe 91d1 16be
00000160: f02b 15be a1c9 693e 93d0 a6be 6800 a6be
00000170: 537f f6bb 3a01 cf3e cfe1 edbd 841a d7be
00000180: 8e67 34be f571 ccbe 62e0 86be 3789 753e
00000190: 3cdf d23d 7642 7cbe 49c2 91bf 8f80 3a3f
000001a0: d9eb 80bf 5452 a23d 6c62 b9be 2192 44bf
000001b0: 6927 a03f 8668 46bf d9d4 de3c daa8 d9be
000001c0: cff2 d1be bdaf d03e 4d3d b3be 362b 94be
000001d0: 4e62 1ebf 48c2 f6b7 723c 97be c2ae a7bd
000001e0: ef6a ccbe 6907 73be 732a a1bf a770 b03d
000001f0: 74b9 edbe 8cb7 71be c285 4abd fe45 22bf
00000200: 42a1 ee3f 4784 45bf 8957 70be b29b bdbe
00000210: 8c59 c9be d293 dc3e 709d 993d 834a e7bc
00000220: 39ca 07bd 6e94 79bd 9de2 19c0 7878 f63d
00000230: 992b c73e c647 1a3e e405 30be 4a6e e33f
00000240: 1f8f 873f b5a0 b9bc 2d29 12be aa05 36be
00000250: f8ee f8bd 721a 0fc0 c1ca 7bbd 8e5d 05bf
00000260: 9949 acbe 93db d8be 9cbb 153e 76af efbd
00000270: fc0d abbe 7dee 6ebd e8b6 31bf 7694 34bf
00000280: 6278 313e e206 3abd 6d46 fabd 538b ff3f
00000290: e7c0 f93f 58ba 29be f3f4 5d3d ad94 bfbe
000002a0: a146 0fbf b8d8 3dc0 80fa d83d cc5a 3abe
000002b0: d96d e8bc 0678 b5bf a795 c7be f44c f7bd
000002c0: 73d4 44be 9d52 47be 9a9c aebe d662 52bd
000002d0: f1e7 2bbd 29a9 9dbe b2e7 48bf 2f9f 8fbe
000002e0: dd7e 0f3f f561 46bd 8399 dfbe 4978 edbe
000002f0: 552e c43e c1b9 723e a962 19c0 8933 26be
00000300: f5e1 2dbc 4964 f33e b94c 4fbb 5395 b9be
00000310: fb0b e7be 038c 643b dbf6 7c3f 6ebf 7dbe
00000320: 7cda b13e a3cb 9fbd 6d64 bdbe 4e13 e43f
00000330: b9ca 7abe f8fc c2bd f6d0 c8bd b84e a5bd
00000340: cac1 62bd f5f4 383e f3af 86c0 2d7a 813d
00000350: b059 0cbd b53a 1ebe 9105 42bf 7912 d23e
00000360: b7f1 2dbf cada c2be 498a bebf 3048 2d3c
00000370: 22e0 b0bb 88ef c4be 2647 5fbd a410 953e
00000380: e6a5 963e 709e d03e 427f a93d 4ea8 f0be
00000390: 18f7 c63e 7ea7 97bf 29b5 cdbe 452d c7be
000003a0: 177f 99be 2220 9a3e 356e 97be b62c 9a3e
000003b0: 459a 26be 0a5a c9be f716 ce3f 72a3 8c3e
000003c0: baf4 78be 1ac2 efbe e884 603e 1092 c9bf
000003d0: 672e 13bf e2db 4cbe 5fe3 5a3e 8428 a0be
000003e0: 8980 b03f 3f67 34c0 f691 983d 20da 183e
000003f0: a7e4 4cbd 441a 8340 2cbd cdbe c7c6 80bf
-0.059936862 -0.40571997 -0.12388149 -0.29751277 0.7568553 -0.31652972 -0.07608343 -0.577128
0.047432937 0.8455127 -0.3392866 -0.32295975 -0.056820437 -0.9924103 0.59670275 0.17135558
-0.06985468 0.12609963 2.4010794 -0.5069223 -0.2789039 -0.22033088 -0.25680888 -0.119927496
0.20880556 0.07198611 -0.06606077 -0.07419079 -2.461846 -0.026129955 -0.51201767 -0.043620862
-0.13807459 -0.9590917 -0.04539348 -0.2935526 0.00017457694 0.20394678 1.0998526 3.058485
0.031043539 -0.044707518 -0.0014000022 1.8195105 -1.0117168 -0.42648184 -0.42843246 -0.022161083
-0.32512397 0.0537915 -0.37382615 -0.14976355 -0.004386195 -0.07476434 -0.06300275 -0.81071967
-0.21159472 0.038267046 0.9236681 0.6320835 0.14880204 0.0045835827 -0.010313594 1.729273
2.235713 -0.35728893 0.049567103 0.36755353 2.2344892 -0.13663194 -0.04919087 -0.33486474
0.03246796 2.502027 -2.0799296 -0.51027983 -0.6983362 0.1425823 1.8712376 0.025768582
-0.3174802 -0.5212877 0.40597776 -0.5511387 -0.64517194 -0.20820804 -0.13939527 -0.1472838
-0.14567542 0.22830822 -0.32581005 -0.32422185 -0.0075225024 0.40430623 -0.11615335 -0.42012417
-0.17617628 -0.39930692 -0.26343066 0.23978125 0.10296485 -0.24634728 -1.1387416 0.72852415
-1.0071975 0.07925859 -0.36207902 -0.76785475 1.2512027 -0.7750324 0.027201103 -0.42511636
-0.4100556 0.40759078 -0.35007706 -0.28939217 -0.6186875 -2.9415954e-05 -0.29538304 -0.08187629
-0.39925334 -0.23733296 -1.259108 0.08615237 -0.46430552 -0.23605174 -0.049443968 -0.6338805
1.8642962 -0.77154964 -0.23470892 -0.3703285 -0.3932613 0.43081528 0.07500732 -0.028233772
-0.03315184 -0.06093257 -2.4044564 0.12034696 0.3890045 0.15066442 -0.17189747 1.7768033
1.0590552 -0.022659639 -0.1427352 -0.17775598 -0.12154955 -2.235989 -0.061472658 -0.5209588
-0.336499 -0.42355022 0.14622349 -0.117033884 -0.33409107 -0.05833291 -0.6941972 -0.70539033
0.17331079 -0.04541672 -0.12220464 1.9964393 1.9511994 -0.16574991 0.05418868 -0.37418118
-0.55967146 -2.9663525 0.10594654 -0.18198699 -0.028372692 -1.4177253 -0.38981363 -0.120752245
-0.19221668 -0.19465108 -0.34103853 -0.05136379 -0.041969243 -0.3079312 -0.7847854 -0.28051135
0.56052953 -0.048433263 -0.43671808 -0.46380833 0.383166 0.23703672 -2.3966467 -0.16230597
-0.010612954 0.4753745 -0.0031631424 -0.36246738 -0.45126328 0.0034873493 0.9881417 -0.24780056
0.34737003 -0.078025125 -0.3699068 1.7818391 -0.24491395 -0.09520906 -0.09805481 -0.08071655
-0.055360593 0.18062194 -4.208978 0.06322131 -0.03426522 -0.15452082 -0.75789744 0.4102972
-0.6794695 -0.38057548 -1.4885951 0.010576293 -0.0053978125 -0.38463998 -0.05451121 0.29114258
0.29423445 0.40745878 0.082762256 -0.47003406 0.38860393 -1.184799 -0.40177277 -0.38901725
-0.29979774 0.3010264 -0.2957627 0.30112237 -0.16269787 -0.39326507 1.6100758 0.2746845
-0.24312106 -0.46827775 0.219257 -1.57477 -0.5749268 -0.20005754 0.21375798 -0.3128091
1.3789226 -2.8188016 0.07449715 0.14926958 -0.050022747 4.0969563 -0.4018339 -1.0060662

linear1.bias f4 [256]
00000000: 6ca7 5cbc 6a84 5cbd 5248 213f 0653 0cc0
00000010: 283c d5bd 1e2f 0c40 1535 0c3f 894d 64bf
00000020: af40 c3be 324e a6be fbf1 dbbe 8f3d 85be
00000030: 343d c0bf 7c7e d8bf 8072 b63f 97e9 bbbf
00000040: 8cea 4c3e 687d f9bc 8c4f 83be 23fd eebd
00000050: 18ee 8dbe 4c24 bbbe e482 7bbe 1d38 76be
00000060: 64aa 4abf 9b57 2ebe 90ef b8be 299a 1c40
00000070: e253 8ebf 0264 30be db92 403e f2dc 913d
00000080: 206b d1bf fa51 443f e90b 983f 506d 98bd
00000090: ee9e 85be a5fd 0dbf 7219 03be ca61 89bf
000000a0: 3408 f5be b835 21be d5cf 6e3f 21aa 4f3f
000000b0: 2abc f2bd 4dfd 4dbf 95d5 b7bb 4723 a9bf
000000c0: 251f 823f dd69 493f 1785 11c0 4032 84be
000000d0: d06b 9a3f 0e56 57bf 47e8 c8be e57e bcbf
000000e0: 3d37 1840 967b 89bc 88f4 a6bd ccf4 89be
000000f0: f85c f6be e43c bfbf db75 69bf 8a89 a8bf
00000100: 61a5 cebe 2a5c ab3e dbdf 3f3f 03bd 6ebf
00000110: 7201 6c3f bbb5 df3d ab67 dd3c 64ba bb3f
00000120: eb70 8fbf 51ae 56be 61d1 bc3f f51e 2b3f
00000130: 2d2a 59bf 9edc c33e bc06 8c3e 50e7 1b3f
00000140: 9e3a 22bf 1c40 743d a557 033f 096d 60bf
00000150: dc70 3dbe 92ee 8e3f 7c79 0fbf d74f 81be
00000160: 6f5c f7be f04b 593e 17bf 093c dc84 1cbe
00000170: fd45 b3be 89a6 da3f 7460 66bf 6309 fabe
00000180: b691 4abe 9eee b1be 6cac 2dbf 5729 453f
00000190: 8418 37be 57c7 52bf 1320 b43e 322b 44bf
000001a0: e445 a43e 0656 353f f109 ddbf faef cdbf
000001b0: b5dc f1be 990d 14bf 28d5 6f3f a99d 05bf
000001c0: 386d 8fbe db04 bcbf 5784 10c0 e464 c9bd
000001d0: a639 1dbf 2cce 94bf d0c8 c93f a23f 743e
000001e0: 2850 b4bf fc00 10c0 46e6 c63e bdeb ae3b
000001f0: 60c2 bf3d a3fe 24be f3ae 51bf 0a16 b9bf
00000200: 2263 2fbe 20d2 983e ff5e c53e 6c42 ebbd
00000210: 8b8a 283f 7b5d 5d3f ed3a 4abf b704 a63e
00000220: 294d 97be 8ac7 19bf 36de f1bf 453e 013e
00000230: 163c 933e 8c94 3bbf 3df3 83bf 00fd 573d
00000240: df58 09bf c800 8c3e 8a43 dfbe fc7d 023e
00000250: c4b7 41be ad03 75bf 85ce 5a3f a1ee 3fbf
00000260: 723b 22bf b10d 1d3f 1ed5 debf 1023 813f
00000270: ead3 f73b 2146 163e 8a87 aa3e 63f4 253e
00000280: 8fa9 c0be 439d f63d 2dcf c1be 0000 6a3c
00000290: bdf5 31bd fdfb 1e3f 8849 42bd 6be6 a83c
000002a0: bd52 ff3f bc87 263e a5de ae3e 539a c3bd
000002b0: 80f4 893f f1c3 80bf cc83 73bf 3ae3 943d
000002c0: c96b 6ebe 9fa2 f1bf 118e a3bd b374 d23d
000002d0: 7d3b 5cbf 4dd8 593f 8a00 023f a58d 8a3c
000002e0: 941a e3bf 45b5 dd3e 77ab 613f c1db 8abe
000002f0: d07a 9fbe 2599 153f b369 98bc f182 25be
00000300: b37c 843c 7e7e e53e a295 c33e 8c5d 81be
00000310: 5201 983f 17af b9be c175 d5be b78f ba3e
00000320: 2cd7 9bbe ee1e 1bbe 55bb d0bf d7d8 0c3f
00000330: 558b 943f 94d6 83bf 7b37 d4bd 081b 2cbf
00000340: 0835 60bf af58 3ebe ad20 74bf 0c26 553e
00000350: 2859 f6bc eab9 d1be 811e 03bf 12e3 38bd
00000360: 65b9 a73e 07f8 393f 803e a6be b23c d53e
00000370: 0f44 25be e542 39bf b9c8 b4be 79e3 4dbc
00000380: 5265 e23e 3554 c9bc 7e34 12bf 17e1 1ebf
00000390: 355f 11be 3fe4 033f 08f4 803f 3c08 e7ba
000003a0: 9152 ebbe 63fd e5be 99e8 b13f f906 cdbe
000003b0: 9076 adbe 4184 4f3e afa1 8ebf a9e4 b8bf
000003c0: 7368 033b 75ef 9f3e 9ee8 11bf bd6d 0d3f
000003d0: 9a5a 96bf e0cc 27be aed0 29bf b35a b0be
000003e0: d1b9 43be bf92 263f 223d b9be 4c16 013d
000003f0: 5795 173e ba23 a7bd ac70 973e cd93 a03e
-0.013467651 -0.053837217 0.6300098 -2.1925673 -0.104118645 2.1903758 0.54768497 -0.8918081
-0.38135287 -0.32481533 -0.42958054 -0.26023528 -1.5018678 -1.69136 1.4253693 -1.4680661
0.20011348 -0.030455306 -0.25646627 -0.11669376 -0.27720714 -0.3655113 -0.2456165 -0.24044843
-0.79166245 -0.17025606 -0.36120272 2.4469092 -1.1119349 -0.1722565 0.18806021 0.0712222
-1.6360817 0.76687586 1.1878635 -0.07442725 -0.26097816 -0.55465156 -0.12802675 -1.0732968
-0.4785782 -0.15743148 0.93285877 0.8111897 -0.11852296 -0.8046463 -0.0056101778 -1.3213891
1.0165755 0.7867716 -2.2737482 -0.25819588 1.2064152 -0.84115684 -0.39239714 -1.4726225
2.3783715 -0.016782563 -0.081521094 -0.26944578 -0.48117805 -1.4940457 -0.9119546 -1.3166974
-0.4036055 0.33468753 0.7495095 -0.9325716 0.92189705 0.10923334 0.027026972 1.4666257
-1.1206335 -0.20964934 1.4751397 0.6684411 -0.8482998 0.38254255 0.27348888 0.6089983
-0.6337069 0.059631452 0.5130561 -0.87666374 -0.18500084 1.1166556 -0.56044745 -0.25256225
-0.4831271 0.21220374 0.008407376 -0.15285057 -0.35014334 1.7082072 -0.89990926 -0.48835286
-0.19782147 -0.34752363 -0.6784122 0.77016205 -0.17880446 -0.8233542 0.3518072 -0.7662841
0.32084572 0.70834386 -1.7268659 -1.608886 -0.472387 -0.5783325 0.93684626 -0.52193695
-0.28013015 -1.4688982 -2.2580774 -0.098336965 -0.6141609 -1.1625419 1.5764408 0.23852399
-1.4086962 -2.25006 0.3884756 0.005338161 0.09363246 -0.16112761 -0.81907576 -1.4459851
-0.1712766 0.29847813 0.3854904 -0.11487278 0.658364 0.86470765 -0.78996164 0.32425472
-0.29551056 -0.600701 -1.8895938 0.1262141 0.2875678 -0.7327354 -1.0308605 0.052731514
-0.5365123 0.27344346 -0.43606216 0.12743372 -0.18917757 -0.95708734 0.85471374 -0.74973494
-0.63371956 0.61349016 -1.7408788 1.0088825 0.007563104 0.1467519 0.33306533 0.16206507
-0.37629363 0.12041714 -0.37853375 0.014282227 -0.043447245 0.62103254 -0.047433406 0.020617684
1.9947125 0.16262716 0.3415424 -0.095509194 1.077774 -1.0059797 -0.9512298 0.072699025
-0.23283304 -1.8877753 -0.079860814 0.10276165 -0.8602827 0.85095674 0.5078207 0.016913245
-1.7742486 0.4330236 0.8815226 -0.27120784 -0.31148386 0.58436805 -0.018605089 -0.16163231
0.016172742 0.44823068 0.38200098 -0.25266683 1.1875403 -0.36266395 -0.41691402 0.3643777
-0.304376 -0.15148517 -1.6307169 0.5501837 1.1605021 -1.0299859 -0.103621446 -0.67228746
-0.8758092 -0.18588518 -0.9536236 0.20815295 -0.03007181 -0.40962154 -0.5121842 -0.045138426
0.32758632 0.72644085 -0.3246956 0.4164787 -0.16139244 -0.723677 -0.3530939 -0.012566441
0.44217926 -0.024576286 -0.57111347 -0.6206221 -0.14196475 0.5152015 1.0074472 -0.0017626355
-0.4596143 -0.4491988 1.3899108 -0.40044382 -0.33879519 0.20265295 -1.1143092 -1.4444782
0.002005127 0.3123738 -0.5699557 0.5524557 -1.1746399 -0.16386747 -0.66334045 -0.34444198
-0.19113852 0.65067667 -0.36179453 0.031515405 0.14803062 -0.08161111 0.2957815 0.31362763

linear2.weight f4 [256, 256]
00000000: b214 e6bc 191e 73bd 742e dcbb 2ebb 44bc
00000010: 380d 113c 26e9 853c 7893 3bbc a6b1 d5bc
00000020: a1fc 3dbd 843d 37bd 8a1a 083d d817 a83c
00000030: 05a2 d3bd 15b2 cabc a551 f0bb cff0 96bd
00000040: 275d 10bc f8dd 56bc 62b0 523d 3800 78bc
00000050: ee49 253d 604f 93bd b49c 73bd 5863 5ebd
00000060: 0c44 c7bc 0446 2ebd 2cc1 cbbc 81db 27bd
00000070: 4a70 bebd 2934 0dbc 5a4b 11bd cdf9 243d
00000080: 50d8 b0bd 44b1 19bc 2631 a3bd 4421 463d
00000090: 4a7e 013c 185b 8d3c 5bed f8bc 321a 5cbb
000000a0: fbb3 54bd a6d9 3abd 40e0 3abb a2af 0fbb
000000b0: 319b 083c 059d eebc c8fd 5c3c a0aa d03c
000000c0: 7ffe 853d 09cc a2ba d355 16bc e886 5f3d
000000d0: ece4 ebbc 7021 073d 7c56 8b3c 09bb 743b
000000e0: 3a31 89bc 38ac 313c 1cce 73bd 4bd4 843d
000000f0: 071b bdbd b35a 0d3c ae88 acbd 26c9 54bd
00000100: 7c29 45bd 68fe cebc b801 773c 5064 58bc
00000110: f03a abbc fe05 7dbd ec31 25bd c22a 25bd
00000120: d188 65bd 1abb 633d 9250 1cbd 4710 5dbd
00000130: ca9f fd3c f30c 38bd 3c6c 59bd a502 17bd
00000140: a86b fbbc 5551 d03b 089e 163d 745b a33c
00000150: c4eb b53c d93c 073c 8777 9c3c fb20 cabc
00000160: 3c23 c3bd 128a a23c 1f14 b63b 1a73 3dbd
00000170: e06f 103b 3cf4 43bd f855 9c3c 7c85 263d
00000180: c432 0dbd e113 ccbd c8a3 34bc ee3d 45bb
00000190: 5fbb 98bd c0c7 0ebd f862 9a3c 12e8 1a3d
000001a0: e0af d03c dab2 a63b 8d43 96bc a7a1 0d3c
000001b0: 2d83 37bd 72b0 7c3c 6614 a0bd 7df6 6cbd
000001c0: 0068 3dba 7b2d 5fbd ad4d c4bd cce3 393d
000001d0: ce70 56bd 9c7a 8ebd 7834 8c3c 81a6 8cbd
000001e0: 5a76 a6bd 7655 ecbc 847d 2c3d c4c6 2dbd
000001f0: de23 6dbd ae05 f1bc 5403 0cbd a0dd 2bbc
00000200: 9241 61bd 3c57 043d d0d7 f0bb d46e f9bc
00000210: 4af5 e63c 0a9b f0bc dca4 41bd 5e58 78bb
00000220: 8f85 5839 c897 74bd cbc1 4fbd b4f7 2fbd
00000230: 8c3b afbd 012d 23bd 9ca9 843b 502f a7bc
00000240: 0ecf 3a3d a805 7bbd 703d 4e3c 0297 073d
00000250: 10ab 193d efa6 0cbd 6d07 35bd c865 5cbd
00000260: 65f2 8fbd 7354 a93c ce82 d0bd 6220 9ebd
00000270: 2969 d3bd 7416 893c 242f 42bc 9a69 1ebd
00000280: b65e 9dbd 7ae8 94bc 80a4 173d 1210 15bd
00000290: 35e1 51bd 3c5f c03c dd44 f93c 7074 09bd
000002a0: f0d8 63bd 3814 243c 51f3 acbd 4288 ffbc
000002b0: 4006 e5bc f537 7bbd b251 f93c a05d 3dbd
000002c0: d21f 7f3d 7dc4 08bb 547c 503d e8fc 423c
000002d0: a458 cdbd c46c de3c 4035 dabc 006d 27bd
000002e0: 539e 033b b91a 6cbd dec0 34bc b058 163d
000002f0: 2f97 95bb eb57 febb d8a0 a1bc 4eac 12bd
00000300: 9658 27bd a8ab 3fbd 73bf 343d 1d95 5dbd
00000310: b8fd 6fbd df38 d9bc 7117 243d 0cdd a4bd
00000320: 066d 69bd 47d5 c23c 4cc9 803c 3165 563c
00000330: 307d 95bd 68de 1abd 8779 94bc 846e b03c
00000340: 6e72 9abd 33c4 1d3d 324b b03c c09e c03a
00000350: 1c2a 9bbb 1fe4 4d3d c8ec 603c f174 15bd
00000360: e0c8 57bd 3553 03bd d824 f43a 2096 403c
00000370: 7a63 24bd b555 a6bc 7ace 68bd b84c 93bd
00000380: 7d72 2f3c fecf 6cbd bba8 0d3d b6b3 fb3c
00000390: 5864 27bc 5fd0 93bc bd9a 00bd de90 9bbd
000003a0: f228 093d f46b fbbc dc03 66bd 98d7 52bd
000003b0: b6f8 59bd d027 9dbc 29ed 89bd e0ba 933c
000003c0: 1ccf 55bd d4f9 193d 5bcd 363d de85 673d
000003d0: 930d 053d 118c 23bd ce51 72bd fc8f 10bd
000003e0: 7d46 84bd 0d21 b4bc 8096 293d a473 a9bd
000003f0: 88c9 44bd 7815 4abd 788c af3c bf8a 963c
-0.02808604 -0.059354875 -0.006719405 -0.012007518 0.008853249 0.016346525 -0.0114487335 -0.026085686
-0.046383504 -0.0447364 0.033228435 0.020519182 -0.10333637 -0.02474312 -0.0073339515 -0.07370149
-0.008811272 -0.013114445 0.051437743 -0.015136771 0.040353708 -0.07192874 -0.059475616 -0.05429396
-0.02432444 -0.04254724 -0.024872385 -0.04098082 -0.09298761 -0.008618393 -0.03547225 0.04027729
-0.08635008 -0.009380642 -0.07968359 0.04837157 0.007903645 0.017255351 -0.030386617 -0.003358495
-0.051929455 -0.045617722 -0.002851501 -0.0021924754 0.008337782 -0.029127607 0.013488241 0.025471985
0.06542682 -0.0012420426 -0.0091757355 0.054572016 -0.028795682 0.032990873 0.017009012 0.0037342927
-0.016747106 0.010844283 -0.059522733 0.06485804 -0.09233671 0.008627581 -0.08424507 -0.051949643
-0.048135266 -0.025267795 0.015076093 -0.01320751 -0.020902127 -0.061773293 -0.040330812 -0.04032398
-0.05603868 0.055598356 -0.038162775 -0.0539706 0.030959982 -0.044934224 -0.053081736 -0.036867756
-0.030690983 0.006357352 0.036771804 0.01994107 0.022207148 0.008254253 0.019099964 -0.02467393
-0.09528205 0.019841228 0.005556598 -0.046252348 0.002203934 -0.047840342 0.019083962 0.040654644
-0.034472242 -0.09964729 -0.011025377 -0.0030096727 -0.07457613 -0.034858465 0.01884602 0.037818976
0.025474489 0.0050872387 -0.018342758 0.008644498 -0.044802833 0.015422927 -0.07816391 -0.057852257
-0.0007225275 -0.054486733 -0.09585128 0.04538326 -0.052353673 -0.0695698 0.017114863 -0.068676956
-0.081280425 -0.028849345 0.04211189 -0.042425886 -0.057895534 -0.029421654 -0.03418286 -0.010489851
-0.054994173 0.032309756 -0.0073499456 -0.030448355 0.028193135 -0.029370803 -0.047276363 -0.0037894468
0.0002064912 -0.059715062 -0.050721925 -0.042960837 -0.085562795 -0.03983784 0.0040485393 -0.020408303
0.04560762 -0.06128469 0.01258789 0.033102997 0.037516654 -0.034338888 -0.044196535 -0.053808004
-0.07028655 0.020670151 -0.10181199 -0.0772102 -0.10322792 0.01673434 -0.0118520595 -0.03867493
-0.0768408 -0.01817726 0.037022114 -0.03639228 -0.051240165 0.023482911 0.030428344 -0.03355831
-0.05562681 0.010014586 -0.084448464 -0.031192902 -0.027957082 -0.06133266 0.030434463 -0.046231866
0.062286206 -0.002086907 0.05089982 0.011901118 -0.100266725 0.027151473 -0.02663672 -0.040875435
0.0020083382 -0.057642672 -0.011032311 0.036705673 -0.0045651416 -0.0077619455 -0.019730017 -0.035808854
-0.040855967 -0.046794564 0.044127893 -0.054097284 -0.058591574 -0.026516376 0.040061418 -0.08049974
-0.05698874 0.02378334 0.015720986 0.013085649 -0.07299268 -0.03780976 -0.018124355 0.021537073
-0.07541357 0.03851719 0.02152023 0.0014695749 -0.0047352444 0.05026638 0.013728328 -0.036488477
-0.052681804 -0.032061774 0.0018626703 0.011754543 -0.04013393 -0.02030454 -0.056837536 -0.07192367
0.0107084485 -0.057815544 0.034584742 0.030725341 -0.010216795 -0.018043695 -0.03139757 -0.075959906
0.033486314 -0.030691124 -0.056156024 -0.051475137 -0.053215705 -0.019184023 -0.06734688 0.018033445
-0.052199468 0.03759177 0.044629436 0.05652415 0.03248365 -0.0399285 -0.059160046 -0.035293564
-0.06458757 -0.021988416 0.041403294 -0.0827401 -0.048043758 -0.04933688 0.021429285 0.018376706

linear2.bias f4 [256]
00000000: ec18 a4bd 776f f5bb d95c f2bc 38ae 16bc
00000010: 46a0 1fbd 2e7f 08be 6c49 d7bd 4b33 d9be
00000020: d9bb 84bf accd 62bd b632 7fbc a0ec 65bc
00000030: 6378 bbbd 905a abbb 800a 453c 7bb9 cbbc
00000040: 5e31 a7bc 0592 bdbd 875a 63bd a237 0fbd
00000050: e6b9 6c3a c412 cf3d f168 c8bd bc12 b7bd
00000060: 1444 5abd 61d5 b1be f913 7ebd af0a 95bd
00000070: 8531 88bd 3eda c6bd ac9f b0bd 9b7c 75bd
00000080: f863 4abc 7a34 313d 6ca2 15bd 961e bb3c
00000090: cd9f 073e d63a ac3c 8e8a 19bd 28fc 11be
000000a0: caec cabd 94c4 fabc d425 82bc 8b12 9bbd
000000b0: 3151 a0bd 55df f7bc 9793 a0bd 68bc c7bd
000000c0: bca6 cd3a 030c 00c0 19f9 5bbd 1544 c1bb
000000d0: 0444 16be bdc0 04be b72f 44bd cd84 dabd
000000e0: 70f4 cdbc 5681 cabd cc9e acbc 4bd8 743c
000000f0: 9612 50be e76c d73b ee23 42bd f1af c73f
00000100: b6b3 b1bc dd94 ccbd d34b 76bd fd52 92bd
00000110: df2b 65bd 3f1d 2bbd a94c eebd acbc afbd
00000120: 2f38 27bd 1af2 02be ecb7 31be 5c0e 98bd
00000130: c61c 2abe db84 a0bd 4179 8dbd 2c9e 1bbd
00000140: 4042 61bd 113f 83bd 4ae9 83bd d87d ccbd
00000150: 75ac 47bd f6f9 adbd df5a cebd 07e2 8fbd
00000160: 335f 9b3f e3b9 0bbd 80a9 3cbd 5952 e5bd
00000170: 07e0 90bb 527f f9bd 0927 0dbd 5d76 3bbd
00000180: d653 debd b5e9 dabd 5606 4cbd c8df 0dbc
00000190: 6a4c 15be 312b fcbd a6f8 eabd 86ef b93c
000001a0: 7df4 ba3c 80be d3bd 34ae 25bc 0d1c aebd
000001b0: c30b d3bd fa0a 04bc bf1c 05be 0edb 06be
000001c0: a4f8 b43f a76e 99bd 9902 c2bc f2a9 9ebd
000001d0: a657 9fbd cec8 07bd b468 e3bd e302 08bd
000001e0: bd59 1c3c 6297 57bc 6314 07bd 0182 8bbc
000001f0: 894d 0abd b5c8 dfbc ea35 90bd b763 abbd
00000200: 9d64 11bd db5f 22bd aeb9 0ebd 476f d8bd
00000210: 4e17 a2bc fd10 f2bd 4bc7 923f 3f1b 3cbd
00000220: 3462 b3bd a6ab 3a3c 8388 cebd a0f3 df3d
00000230: 3982 153f 48a2 32bd 1513 36bd 4ea9 6cbc
00000240: 70f5 88bd 9b70 b3bd 9342 2c3c f25d 6dbc
00000250: 6e08 9c3c 61f4 e2bd a43e 34bd 2520 02bd
00000260: b54e c53c f7e0 15bd dc21 ccbc fe95 cfbd
00000270: 6fa7 c7bc 7cfc eebd c95a dfbc 225b 1bbb
00000280: ecd5 c6bd 5e42 5e3c ef50 a1bd a6d0 81bd
00000290: 8b8d 99bd c417 8dbd e763 16bc 41c9 593d
000002a0: 6a3e cebd 28ab 63bd b6f8 01be 0587 043d
000002b0: 7f85 ae3c 2066 97bd eda6 27bd a48d ccbf
000002c0: 681d e8ba aba6 68bd 8df5 86bd b1c6 80bd
000002d0: 3135 18bd 4090 ddbc e582 aebc 7b40 e0bd
000002e0: 7fc5 76bd 55cb 12be 0e5d c83d 0c15 58bd
000002f0: d735 73bd 230f eabd cbe6 88bc 8123 7a3d
00000300: aef8 8ebd 14e5 0cbe 9589 c6bd f24c 86bd
00000310: da7b a6bc 72d7 a0be 9432 96bf 7518 d63c
00000320: c98e a8bd 9151 4abd d6dd 84bd aecb 5ebd
00000330: 7963 aabd 68e4 89b9 18ed 91bd fd97 213b
00000340: f584 aabd 258b 22bd ac27 2fbd 1dbc a0bd
00000350: dce6 01bd 46c1 5cbc ad7b f8bc b351 03be
00000360: bfd5 85bd 8460 c3bd f121 e8bc eaef 2dbe
00000370: 1b54 bdbd 4b22 29bd 8e2f 0dbd e6be a83c
00000380: 5c7c 0ebe f75d 44bc 0fea 91bd eedf d8bc
00000390: a092 8fbd 01ca c1bd f8fd 2bbd 3c02 7dbc
000003a0: fcd5 a9bd 7433 f1bd 4582 c337 866e 71bd
000003b0: 4e5d 93bd ee1b 963d d69c 3ebd 372a 49bd
000003c0: 5569 bcbd 509c 6fbd 2cec d5bd 4678 a1bd
000003d0: c5a3 0bbe 911f aabd d27c d7bd 84fc 6bbd
000003e0: 9eab 85bd 9944 3ebd 45d6 a0bc 4034 afbd
000003f0: ab80 0bbc 2513 97bd 57f1 323e 2fd1 d4bd
-0.08012566 -0.0074900943 -0.029585289 -0.00919681 -0.038971208 -0.13329765 -0.10512051 -0.42421946
-1.0369827 -0.055371925 -0.015576055 -0.014033467 -0.09153821 -0.0052293018 0.012026429 -0.024868717
-0.020409282 -0.09256367 -0.055506255 -0.034965165 0.00090303866 0.10111001 -0.09785641 -0.0893912
-0.05328758 -0.34733108 -0.062030766 -0.07277428 -0.0665007 -0.09709595 -0.08624205 -0.059933286
-0.012352936 0.043262936 -0.03653185 0.022841733 0.13244553 0.021024149 -0.03748565 -0.14256346
-0.09908445 -0.030611314 -0.015887178 -0.07571896 -0.07827986 -0.03025786 -0.078406505 -0.097527325
0.001568995 -2.0007331 -0.053704355 -0.0058980086 -0.14674383 -0.12964149 -0.047897067 -0.10669861
-0.025140971 -0.0988795 -0.021071814 0.014944146 -0.2031959 0.0065742615 -0.047397546 1.5600568
-0.021692138 -0.09989331 -0.060130905 -0.07144735 -0.05595004 -0.041775938 -0.116357155 -0.08580908
-0.040825065 -0.12787667 -0.17355317 -0.07424614 -0.16612539 -0.0783784 -0.06907893 -0.03799264
-0.05499482 -0.06408513 -0.06440981 -0.0998494 -0.048748452 -0.08494942 -0.10075926 -0.07025533
1.2138427 -0.034112822 -0.046060085 -0.11197347 -0.0044212374 -0.121824875 -0.034461055 -0.045767177
-0.10855834 -0.10689107 -0.04981073 -0.008659311 -0.14579931 -0.123129256 -0.11473207 0.022697221
0.02282166 -0.10339069 -0.010112334 -0.08501444 -0.10304978 -0.008059258 -0.12999247 -0.131695
1.4138379 -0.074918084 -0.02368288 -0.07747258 -0.077803895 -0.033150487 -0.11103955 -0.033205878
0.00954288 -0.013158651 -0.032978427 -0.017029764 -0.03376535 -0.027317384 -0.07041533 -0.083686285
-0.035496343 -0.039642196 -0.034845047 -0.105680995 -0.019786503 -0.118196465 1.1467069 -0.04592442
-0.08758965 0.011393463 -0.10084631 0.1093514 0.5840183 -0.043611795 -0.04445179 -0.014444662
-0.066874385 -0.08761712 0.010513919 -0.01448773 0.019046988 -0.11081768 -0.04400505 -0.031768937
0.024085382 -0.036591496 -0.02491849 -0.101360306 -0.02437183 -0.11669251 -0.02726497 -0.0023705442
-0.09708771 0.013565628 -0.07876765 -0.06338625 -0.074977 -0.068892986 -0.009179092 0.053170446
-0.10070498 -0.05558315 -0.12692532 0.032355327 0.02130389 -0.07392526 -0.040930677 -1.5980725
-0.0017708959 -0.056799572 -0.06589804 -0.062878974 -0.037160102 -0.027046323 -0.02130265 -0.10949799
-0.06024694 -0.14335378 0.09783374 -0.052754447 -0.059377518 -0.11428668 -0.016711613 0.061069015
-0.06981026 -0.13759261 -0.096942104 -0.06557645 -0.020322729 -0.31414372 -1.1734185 0.026134709
-0.08230359 -0.049394194 -0.06487624 -0.054393463 -0.08319754 -0.00026300852 -0.071253 0.0024657242
-0.08326141 -0.03968348 -0.042762443 -0.0784838 -0.031714305 -0.013473814 -0.03033241 -0.12824135
-0.065349095 -0.09539893 -0.028336497 -0.16986051 -0.092445575 -0.04129247 -0.03446918 0.02059884
-0.13914627 -0.011985294 -0.07124721 -0.026473965 -0.070103884 -0.09462357 -0.04199025 -0.015442427
-0.082927674 -0.11777392 2.3306473e-05 -0.058943294 -0.07195531 0.07329546 -0.04653629 -0.049112525
-0.09199778 -0.05849868 -0.10445437 -0.078842685 -0.13636692 -0.08306802 -0.105218545 -0.057613865
-0.06526874 -0.04645214 -0.019633422 -0.08554888 -0.008514564 -0.073766984 0.17474876 -0.10391461

linear3.weight f4 [256, 256]
00000000: 705f ed3c cad6 443c 3a47 01bd f838 6a3d
00000010: 8ada 4d3d bc30 0bbc ef69 873d 4314 eabc
00000020: c83c cdbd 13cf 9cbc 74d5 e0bc 7128 23bd
00000030: 9b2b 5dbd 6d5a 853d 882d 213d 13ad 613c
00000040: 1aca 0abd ec81 5ebd b408 fe3b 6d10 bf3d
00000050: d79d 7cbd 242e 8a3d 70e3 053c 34cc 17bd
00000060: 7c1f 723d a98e 06bd 5ef2 173d 5e1d 8d3c
00000070: a540 33bd e2d2 393d faaf 02ba 7727 063d
00000080: 5cb0 123c 2652 123d b0f7 30bd 1d76 a83d
00000090: 60be 81bc 8301 dfbc 4a99 403d 9f77 d2bc
000000a0: da25 653d a5f7 e1bc cd8e 65bd bfc3 103d
000000b0: 8ccb 8abd c613 283d 65ca 3abc 1889 803d
000000c0: 1e5d e2bc f264 0ebe 72d0 80bc faee 2f3d
000000d0: 6066 803c 643a 383d 2879 0b3d a845 28bd
000000e0: 30d8 3fbd 85fd a93c bc8f 163d 387c 553d
000000f0: 912e 98bc e0f2 883b c66b 613d 5718 1abe
00000100: b439 0bbb d184 d63c 3b19 fd3b 67fb 973c
00000110: 4480 953c b036 af39 a85d 423d 9ea0 423d
00000120: a049 31bc c33a ee3c d678 85bd e1f6 393d
00000130: 5a8f 1a3d 3b65 f7bc d0a5 6cbb 4467 12bd
00000140: efa5 133d a631 083c 5721 493d 874e e6bc
00000150: 45fa 76bc eda7 b8bc f0d1 4a3d 9b38 c1bc
00000160: fa07 39bd 5cb4 0fbb 225f 77bd 0f7d 673d
00000170: e5f4 33bd 44a5 3ebd 2c7e a8bc 8b4a afbc
00000180: a4cc 23bc b3f0 613d b6b3 073d 9d03 453c
00000190: 982d 33bd 3186 713d 53db a2bc 18e6 323d
000001a0: e63e 2abc 6561 71bd f639 d1bd 2305 e03c
000001b0: d58c 833c 8520 343d 5136 013d c62d 5abd
000001c0: 6e23 bfbd f51f 633d fce7 c7bc 9299 343d
000001d0: 6522 783d 8f74 26bd 3b4c ca3c 14cd 5ebd
000001e0: 8cb8 d2bc 6510 1f3b 943b 5b3d 6278 b03b
000001f0: 3c8f f83c d1e6 153d 6c7f 7c3c 6cb2 ecbc
00000200: 62a8 2a3d 4265 ad3c 37cf b73b 7b48 ccbc
00000210: 9bcd dd3c 5707 323d 21f2 3ebd dc03 1f3d
00000220: 4819 bfbc 970a 23bd 90cd 44bd b344 2a3d
00000230: d166 f43b 60b2 7e3c 1cae a9bb 9a00 1c3c
00000240: a059 24bc 448e 69bd 682d b83c 5f72 553d
00000250: 68fe 15bd 09ec 883c a7a8 563d 0810 7cbc
00000260: c686 58bd 6389 5fbd b490 ed3c 5062 963d
00000270: a81d 1b3c 5d63 09bd 4e41 18bd 276b a43c
00000280: e19a d7bc dcfc 3cbd ef8f 4abc da84 823d
00000290: d1b5 24bd e6c8 7f3d ed9b 46bd 38b0 7f3c
000002a0: 4cd3 fabc 42bb 64bd 3ebf 813d 0164 00bd
000002b0: 0bdc 25bc 3e33 cd3c e0ff d93b c973 83bd
000002c0: a829 1cbd 5b2c 773b bb7b 19bd 90b0 d33b
000002d0: 3e03 0ebc 23c3 3f3d 5f87 08bd e062 39bc
000002e0: 6448 7f3d dc5a bdbc 3db2 0ebe cd77 7b3d
000002f0: 8840 03bd e2f2 2ebd 08bc ddbc 5ff0 e1bd
00000300: 92e7 813c 20e2 d03a 2b51 a5bd 1cfd eeb9
00000310: 5286 673d 517c 283c 58bd 333c 39d5 3fbd
00000320: baec 59bd 4f55 97ba f3ca ad3c b52f 263d
00000330: aec8 e0bb 338d 2c3d c124 a7bc 2eb1 30bd
00000340: aca4 c6bc 6ca7 6bbb a862 40bc ab0d 963d
00000350: d471 c83c 4eae 6abd 83f7 6abd 46a9 f9bc
00000360: 7e94 62bd b952 76bb 1f91 bfbc fbae 86bb
00000370: b834 263c 563f abbd 7965 e3bc e734 6fbc
00000380: 302a f13c db3f e43c 5498 e53c a890 47bc
00000390: 3981 cd3d 61b4 063b 9495 2c3d 7d8e eebc
000003a0: 200e c23c ba71 2a3d 3d5f 42bd 5893 78bc
000003b0: 87c6 9abc 54e2 d73b 65b7 87bd 4cfa a7bc
000003c0: 44ba a3bc 90ee 2ebd 60e1 7c38 cde8 433d
000003d0: 2793 023c 58d7 333d beb4 153d 0d62 503d
000003e0: 5abd 44bb 570b cdbc df3b e53c 5db2 003c
000003f0: 1805 89bb ae2f 013d d4ab a3bc 2075 363d
0.028976172 0.0120141 -0.031562068 0.057183236 0.050257243 -0.008495506 0.06612002 -0.028574115
-0.10021359 -0.01914171 -0.027445532 -0.03983349 -0.053996664 0.06511388 0.039350063 0.013774174
-0.033884145 -0.054323122 0.0077525023 0.09329305 -0.061673965 0.06747082 0.008171901 -0.037059978
0.059112057 -0.032850895 0.037096374 0.017225917 -0.04376282 0.04536713 -0.0004985329 0.03275248
0.00895318 0.035722874 -0.043204963 0.08225653 -0.015837848 -0.0272224 0.047021188 -0.025691805
0.0559443 -0.027583906 -0.05604439 0.035342928 -0.06777105 0.041034482 -0.011400794 0.062761486
-0.027632292 -0.13905695 -0.015724394 0.042952515 0.015673816 0.04497756 0.03405109 -0.041082054
-0.04683703 0.02075077 0.03675817 0.052120417 -0.018576892 0.0041793436 0.05503442 -0.15048347
-0.002124411 0.026186379 0.007723955 0.018552495 0.018249638 0.00033419346 0.0474526 0.047516458
-0.010820776 0.029080754 -0.06517188 0.045401458 0.037734367 -0.030199638 -0.0036109574 -0.035743013
0.03604692 0.008312618 0.04910406 -0.028113617 -0.015074317 -0.02254101 0.04951662 -0.023586562
-0.045173623 -0.002192757 -0.06039346 0.05651575 -0.04393472 -0.04654433 -0.020567976 -0.02139785
-0.009997521 0.05516119 0.03313037 0.012024787 -0.043744653 0.058965866 -0.019879973 0.043676466
-0.010390973 -0.058930773 -0.10216133 0.0273462 0.016058365 0.043976326 0.03154594 -0.05326631
-0.093329296 0.0554504 -0.024402611 0.04409177 0.060579676 -0.040638503 0.024694553 -0.054394796
-0.025722764 0.0024271247 0.053523615 0.0053854445 0.030341737 0.036597077 0.015411239 -0.028893672
0.04166449 0.021166448 0.0056094187 -0.024936905 0.02707558 0.04346403 -0.04661763 0.03882204
-0.023327485 -0.03980502 -0.048047602 0.041569423 0.0074585457 0.015545458 -0.005178226 0.009521628
-0.010031134 -0.05702044 0.022482589 0.052111026 -0.036619574 0.016714113 0.052406933 -0.0153846815
-0.052862905 -0.05457438 0.028999664 0.0734297 0.00946752 -0.033542026 -0.037171654 0.020070625
-0.02631897 -0.046139583 -0.012363418 0.06372996 -0.040212456 0.06244745 -0.048488546 0.015605979
-0.030618332 -0.055842645 0.06335305 -0.03134537 -0.010123263 0.025048848 0.006652817 -0.06418569
-0.038125664 0.0037715647 -0.037471514 0.006460257 -0.008667765 0.046816956 -0.033332225 -0.011315078
0.062324896 -0.023114614 -0.1393518 0.061393548 -0.032043964 -0.0427121 -0.0270672 -0.11032175
0.015857492 0.0015936531 -0.08072122 -0.0004558348 0.056524582 0.010283546 0.010970436 -0.046834204
-0.053204276 -0.001154581 0.021214938 0.04057284 -0.0068598604 0.042126846 -0.020403268 -0.04313772
-0.024248444 -0.0035957946 -0.0117422715 0.07326826 0.02446834 -0.057295136 -0.05736495 -0.030476224
-0.055317394 -0.0037585928 -0.023384629 -0.0041102148 0.010144405 -0.0836169 -0.027758347 -0.014600015
0.029439062 0.02786248 0.028026737 -0.012180485 0.10034413 0.0020554292 0.042134836 -0.029120678
0.023688376 0.041612364 -0.047454108 -0.015171848 -0.018893493 0.0065882597 -0.066267766 -0.020505093
-0.01998628 -0.04270798 6.029138e-05 0.047829438 0.007969654 0.04390654 0.036549322 0.05087476
-0.003002009 -0.025029821 0.02798265 0.007855025 -0.0041815154 0.03153961 -0.019979395 0.044545293

linear3.bias f4 [256]
00000000: eaf5 d7bd 6567 80be 3722 a1be e101 00be
00000010: 7f1e 76be 1263 84bb ee98 a13f fb3a 05be
00000020: 4adf c4bd a74c edbd 5b05 18be 317b 47bd
00000030: 310a 0fbe d749 2dbe c30c e6bd 967c 5dbe
00000040: 8519 5bbe 2c20 12be 11a7 8abe d0f4 afbe
00000050: 0169 8abe f1f0 ae3f 5957 98bd ff42 5fbe
00000060: 9c98 fcbe 39b0 573e e7cc 19bf 423e d5bd
00000070: 4c8f f2bd 4427 b1be 4c0f 1fbe f071 37be
00000080: b577 73bd e919 e5bd fa42 e53e 5291 93bd
00000090: 59cc abbe ebde ae3d 48cd 76bd 66e1 d6be
000000a0: e45c 3abe c5ad 30be 705f 1ebd e17e b4bd
000000b0: 8ccd 8fbb 3e9b 34be e400 30be c798 75bd
000000c0: 63ee 0b3e 5ab6 a93f 14dd 4e3f 0248 2fbe
000000d0: cb8d cdbd e241 5abe 359f 49be 6cf0 1abe
000000e0: d21a 3abe 50ac 11be e71b aabd c34d 0fbe
000000f0: 3a18 40bd 2eaf 8ebd 19ea 1abe 6859 8cbd
00000100: b832 28be 6103 c2bd a254 8dbd 920a 3bbe
00000110: e76a 46be b34c 0ebd 95ba 1dbe 92ab bebd
00000120: 4e84 4d3f 1227 06be 7074 0ebd 84e1 f7bd
00000130: 2e4f 69be f207 5fbe ed5f 4ebe e3af 95bb
00000140: 7a03 65be 206f 80be 8715 7ebe a5c7 76bd
00000150: 5ab9 ef3e 0d76 8ebe 2b9f 7bbe 38e0 3cbd
00000160: b78b f8bd 9013 63be ee15 523f 1356 0bbe
00000170: eaf0 63be 1869 85be a67a c7bd bbd2 2abe
00000180: d525 843e 35c1 9cbe 3e20 24be 42c6 cbbd
00000190: beda d7bd 73b5 703e fd41 09be 63f7 ac3e
000001a0: 14df 81bf f4b9 d1bd ac9d 4b3d 20bb 0ebe
000001b0: eb04 ffbd a485 c0be 0ea5 2e3d 69f5 cdbe
000001c0: 4307 8dbd 3062 4bbe 3b2b a4be 92fb e2bd
000001d0: 7761 5cbe 1d09 57be 9948 b9be eac0 69be
000001e0: 16cb 4abe 1dff e0bc 9e98 2cbe 4c45 f7bb
000001f0: 8829 2c40 a7b9 a2be c070 82be 02b8 cabe
00000200: 3a0c 55be ef11 82bc f6b6 663e 1605 9bbd
00000210: e7e2 cdbd 0e74 03bd 79d0 00be 9475 1bbf
00000220: 1eac 39bc 90a3 85bd 2a09 87be 9404 f33c
00000230: 6155 c3be 5977 41be d5af 253f e5d5 2c3f
00000240: 8b6f 7dbe 7894 94be a146 49be f0e1 b3bd
00000250: a214 2abe 0f8e cabd d826 6ebd ec14 6dbd
00000260: df5a 0abe 3b9d 50be 89d2 2ebe c3f8 34bd
00000270: a80d 41be 0b05 c9be b123 42bf 4a5e e4bd
00000280: bbd1 32be 6e62 80be 9851 7bbe 137a ccbe
00000290: 8c65 36be ce04 863e 7549 1dbe 1851 b83f
000002a0: 8c06 3fbe 8f7d 1ebe c20d 43be 3fcd 89be
000002b0: 17c7 dfbd d4b2 8cbb 14d9 b0bd 22ff 413f
000002c0: a5c5 38be 97fa 6bbe 426d 11be 2f9f 58be
000002d0: 84f9 83be 953f 1fbe 5ae4 68bd ef46 023f
000002e0: cf4b 35bd a9f0 28be cd40 67be 0bd0 18be
000002f0: baa5 4abd 6cc9 35be d074 083f 8bb6 5dbe
00000300: 210b 2abe e8f1 693e 269d 77be 620c 6d3e
00000310: f3e6 23be d90d 33be afcd f1bd 208c 20be
00000320: a7ac 403e 265a 613f 076f 3ebe d673 40be
00000330: d59f 27be ad64 7bbe 01c7 ffbc 819a e6be
00000340: 148b b43d 15ae eaba dacb e5bd a3c4 cdbd
00000350: 709c 5bbe bfa5 4abe 0ed6 00be 46f0 893d
00000360: 680c 33be 0ac4 d03b 4be2 65be be67 a1bd
00000370: 709c c5bc 61b7 8a3f 4eb6 85be 600c 47bd
00000380: badd 2dbe a751 f63e ee82 40be e69e 0dbe
00000390: 19e1 23be 3cde 95be cdd8 abbe 37f5 16be
000003a0: 1dad 02bf 4bb4 c4bd 2f9d 21be b02c e4bd
000003b0: fff2 adbe 4a97 e83e 8326 ed3e 07a6 84be
000003c0: 8883 0bbe 42c6 e6bd 31b5 03be 63a1 e73f
000003d0: 8ff3 e3bd aeda 1ebe 68e7 76bd f42c dc3f
000003e0: 504a 0abe a066 31be 9036 ecbd 6e96 cb3d
000003f0: 2030 d1bd c798 4840 2b0e 86be 04e0 073e
-0.10544951 -0.25078884 -0.31471416 -0.12500717 -0.24035071 -0.0040401304 1.2624795 -0.1301078
-0.096129015 -0.11586886 -0.14845793 -0.04870147 -0.13968731 -0.16922699 -0.11232903 -0.21629557
-0.21396454 -0.14270085 -0.27080587 -0.34366465 -0.27033237 1.366728 -0.07438535 -0.218029
-0.49335182 0.21063317 -0.6007828 -0.10412265 -0.11843738 -0.3460027 -0.15533179 -0.17914557
-0.059440333 -0.111865826 0.44777662 -0.07205452 -0.33554342 0.08538612 -0.060254365 -0.4196884
-0.18199497 -0.17253788 -0.038665235 -0.08813263 -0.004388517 -0.17637345 -0.1718784 -0.059960153
0.13665156 1.3258774 0.8080609 -0.17117313 -0.100368105 -0.21314195 -0.19689639 -0.15130776
-0.18174294 -0.14225888 -0.08306103 -0.13994507 -0.046898104 -0.069670066 -0.15128364 -0.068529904
-0.16425598 -0.09473301 -0.06900908 -0.18265751 -0.19376718 -0.034741115 -0.15403207 -0.09310068
0.80280006 -0.13100842 -0.034779012 -0.121035606 -0.22784111 -0.21780375 -0.2015378 -0.0045680865
-0.22364607 -0.25084782 -0.248129 -0.06024899 0.468211 -0.2782444 -0.24572437 -0.04611227
-0.121360235 -0.22175431 0.8206471 -0.13607053 -0.2225987 -0.26056743 -0.0974019 -0.1668195
0.25810114 -0.30616155 -0.16027924 -0.09949924 -0.10539769 0.23506717 -0.13404079 0.3378249
-1.0146203 -0.10240546 0.049710914 -0.1393857 -0.1245211 -0.3760196 0.042637877 -0.40226296
-0.06886151 -0.19861674 -0.32064232 -0.110831395 -0.21521555 -0.2099957 -0.361882 -0.22827497
-0.19804034 -0.027465397 -0.16855094 -0.0075461026 2.6900349 -0.31782266 -0.25476646 -0.39593512
-0.20805445 -0.015877692 0.22530732 -0.075693294 -0.10053044 -0.0320931 -0.12579526 -0.60726285
-0.01133254 -0.06525338 -0.2637418 0.029665269 -0.38151076 -0.18893184 0.64721423 0.6751388
-0.24749582 -0.29019523 -0.19655849 -0.087833285 -0.16609433 -0.09890377 -0.058142513 -0.05788128
-0.13511227 -0.20372479 -0.170725 -0.04418255 -0.18852866 -0.3926166 -0.7583571 -0.11150797
-0.17462818 -0.25075096 -0.24542844 -0.39936885 -0.17812175 0.2617554 -0.15360053 1.4399748
-0.18654841 -0.15477584 -0.19048217 -0.26914403 -0.10926645 -0.004293779 -0.08635154 0.75779927
-0.18044145 -0.23044811 -0.14201835 -0.21154474 -0.25776303 -0.15551598 -0.056858398 0.50889486
-0.04426175 -0.16498055 -0.22583313 -0.14923112 -0.049474455 -0.17752618 0.5330324 -0.21651666
-0.16605808 0.22846186 -0.24181041 0.23149255 -0.16006069 -0.17485751 -0.11806809 -0.15678453
0.18815862 0.8802818 -0.18597041 -0.18794188 -0.16369565 -0.24550124 -0.031222822 -0.45039752
0.088155895 -0.0017904664 -0.11220522 -0.10047271 -0.21446395 -0.1978979 -0.12581655 0.06735282
-0.17485201 0.006371026 -0.22449605 -0.078811154 -0.024122447 1.0837213 -0.2611565 -0.048595786
-0.16979113 0.4810917 -0.18799946 -0.13830146 -0.16003837 -0.29271114 -0.33563843 -0.1474198
-0.510454 -0.09604701 -0.15782617 -0.11141336 -0.33974454 0.45427924 0.46318445 -0.2590792
-0.13624394 -0.112682834 -0.12862088 1.8096126 -0.111304395 -0.15513107 -0.06027928 1.7201219
-0.1350491 -0.17324305 -0.115338445 0.099408016 -0.10214257 3.1343248 -0.26182684 0.13269049

linear4.weight f4 [3, 256]
00000000: 96e9 e5bc 7dff d0bc c39d ba3b 6712 d23c
00000010: 4b9f 343c 5d48 0b3e 9e68 e63d 6386 743d
00000020: 3fcf 81bd 8bff 83be 4bf3 103b c563 ea3d
00000030: 9043 253d e145 70bc 583e f53c 864c 4c3d
00000040: 4392 c13c ee34 d5bd 8a59 0b3d 6131 243e
00000050: cd4c 0c3c ab04 eb3c 6d51 57bd 8a64 113d
00000060: 260f 73bd df56 fcbb acf9 d2bc 8581 a1bc
00000070: 5f2c c03c dff5 f7bc b320 fabb 083c 31bd
00000080: e0e5 ab3d ccb8 203d b233 283e 9dc9 cc3c
00000090: d0eb 4cbe 4948 abbd 0a4e 5d3d 8839 3fbd
000000a0: f04c aa3b 8bea b1bc 8135 56bc bd4f 74bd
000000b0: 690e 943d 2c10 203d 0902 a03d 5dd2 09bc
000000c0: 2b9c 88be 6ca4 7b3e bbc4 6b3e a2bd 433d
000000d0: fed5 603d 13b0 34bd dc6f 163d 4d65 d73c
000000e0: 80ee 36bc 3700 fd39 63cf d83c d863 ce3c
000000f0: 658c efbd de25 d4bd e72f 903c ffd9 3cbe
00000100: 91f0 8a3d f058 f93b fa9f 093e fcc0 cabb
00000110: 372b 8ebc 0e8f a33d 15d3 043d fceb 7a3c
00000120: 598c 7abd d340 373d 65b2 a93d ccc6 39bc
00000130: e4a7 1bbd 2783 193d 0ecc 403a 07a1 df3d
00000140: bf9f 143c 864e 1b3c 28c6 6ebc e01b 8ebd
00000150: e8f3 0ebe 59c5 c53c 9ed4 e7bd f226 a03d
00000160: a328 bd3b 54bb 813c 07e6 a03c 6b5a 11bd
00000170: 27b2 78bc 2347 a83c 63b5 333d 5662 ca3c
00000180: fa80 d7bd bdc6 c53d 598e c5bb 4d75 0ebc
00000190: 0eb2 54bb 9d1f 45bd 6fde 91bc 18a2 17bd
000001a0: 9214 82bd 424c aabc 45f7 013e 41f1 cc3c
000001b0: d803 af3c 16a9 cd3c 3889 8b3d 0976 33bd
000001c0: 9051 1f3d 1091 c3bb 5ee4 cabb a57c c93d
000001d0: b3fa 5e3c 5c93 bf3b 45b0 c6bc 04e5 1b3d
000001e0: 6b13 7a3d 4898 cabd d9cb f0bc 4922 7f3d
000001f0: 5094 363e 6ce9 313d 3b5f 003d 7ba9 e9bc
00000200: 695d 2bbb d085 813c 8623 edbc cef4 1ebd
00000210: c520 60bc 4b5d 87bd cb6a a83d 9bd6 733c
00000220: 456f 2bbe 4b79 343d ea53 0fbb a005 71bd
00000230: 53d4 06bc f4af 8e3c 715d 263d 6662 d33c
00000240: 4be9 8ebb 20c0 d4bc 5627 253c 5e4b e3bc
00000250: d0db 183d 5891 9b3c 80fb 103d 6ed8 4a3d
00000260: d3fe 30bd e55f 323c cd3d 893d 67d1 ba3d
00000270: fdf6 3a3d 048f f13d a7b1 f73c ed07 cd3b
00000280: f0c5 d3bc 2ad5 c53c 6c3f 553d ee48 343e
00000290: d843 c0bd 6fec 053e 321b 8e3d a701 49be
000002a0: 1662 07bb 7d3b 963c 53c2 95bd 6e44 e4bc
000002b0: 95eb 16be 722b a83d cdcd c1bd 416c d83d
000002c0: b66c 31bc 8e17 133c d0bf 313d afc8 b33c
000002d0: 2247 143d 006f a23c f5bb 29bc 117b 063e
000002e0: 6bef 8e3d 9733 65bd 81e8 acbc 01e0 f9b8
000002f0: df4d 173d 0827 bfba b333 7ebd 230d 4abd
00000300: 1121 ef3c f541 9c3d 629f 09bc aed8 4d3d
00000310: 535c 543d 340c 833b bc9d f93c 9b17 fabb
00000320: 7507 2bbc 57a6 35be 500f 04bd 8a30 b43d
00000330: 6150 4b3d 36b8 fb3c 27e7 c73b f014 743d
00000340: c5f3 3dbe 7f47 273d 86ad 49bc a2ab e5bb
00000350: c68a a4bc 2b40 ec3a 506e 08bd 7ecb 95be
00000360: eb95 be3b 6db3 b1bd cb30 24bc 846f dfbc
00000370: 9a4c 8b3d 0cdc 7b3d 9d27 473d 5240 82bc
00000380: 1a75 de3c f8b4 223d b150 ebbc c47c b33b
00000390: fb37 47bc bab7 1a3b a849 32bd 07a3 32bc
000003a0: 8241 8a3d 23fd 5e3c aa2f 4eba f2a1 fdbc
000003b0: a874 8d3d 5985 54be 317c efbd ea5a cd3c
000003c0: 3362 723d 576d a6bd e63c 01bd 81e7 fe3d
000003d0: 4cd7 d13a aa9f 3d3e b47c a03c ecc8 03bd
000003e0: 597f 623e 3d41 cb3c aa8e 7abc 11aa 19bc
000003f0: ca04 823d 8a02 a63d fbcc e5bc 8ec7 5bbe
-0.028065484 -0.025512451 0.005695076 0.02564354 0.0110243065 0.13601823 0.11250423 0.059698474
-0.06338357 -0.257809 0.002211767 0.11444811 0.040347636 -0.014665098 0.029936954 0.049877666
0.023629313 -0.10410486 0.034020938 0.16034462 0.008563233 0.02868875 -0.052567888 0.035496272
-0.05934062 -0.0077007855 -0.025753818 -0.01971508 0.023458658 -0.030268608 -0.0076332926 -0.04327014
0.083934546 0.039238736 0.1642597 0.02499848 -0.2001183 -0.08363397 0.054029502 -0.046685725
0.00519716 -0.021718284 -0.01307428 -0.059646357 0.07229311 0.039077923 0.07812888 -0.008411971
-0.26681647 0.2457444 0.23024265 0.04778827 0.05489158 -0.04411323 0.03672777 0.026293421
-0.011165261 0.0004825608 0.026466077 0.025194094 -0.116967 -0.10358785 0.017600967 -0.18442534
0.06784166 0.007609479 0.13439932 -0.0061875563 -0.01735459 0.0798627 0.032427866 0.015315052
-0.061169002 0.044739556 0.08285979 -0.011338901 -0.03800191 0.037478592 0.0007354625 0.109193854
0.00907129 0.009479171 -0.014573611 -0.069389105 -0.1396023 0.024141954 -0.113198504 0.07819928
0.0057726665 0.015836395 0.019640936 -0.03548662 -0.015179194 0.020541733 0.043874156 0.024705093
-0.10522647 0.09657047 -0.006028932 -0.008694959 -0.0032454762 -0.048125852 -0.01780626 -0.03701982
-0.0635158 -0.020788316 0.12691982 0.025017383 0.021364138 0.02510504 0.06813282 -0.04381374
0.038896143 -0.0059682205 -0.0061917743 0.09838227 0.013609576 0.005846424 -0.024253974 0.038060203
0.061053675 -0.098923266 -0.029394077 0.062288556 0.17830014 0.0434355 0.03134082 -0.028523197
-0.0026148206 0.015810877 -0.028947603 -0.038807683 -0.013679688 -0.06609591 0.08223494 0.014882709
-0.16741665 0.044060986 -0.0021870085 -0.058843255 -0.008229333 0.017417885 0.040616456 0.025803756
-0.004361307 -0.025970519 0.010080179 -0.027745899 0.037319005 0.018990204 0.0353961 0.04952281
-0.04321177 0.010887121 0.06701241 0.091219716 0.045645703 0.11794856 0.030236078 0.0062570483
-0.02585122 0.024149496 0.052062437 0.17605945 -0.0938794 0.13078474 0.06938781 -0.19629537
-0.002065783 0.018338913 -0.07312455 -0.027864661 -0.14738305 0.082114115 -0.094630815 0.10567523
-0.010829141 0.008977784 0.043395817 0.02194628 0.03620065 0.01982832 -0.010359754 0.13132884
0.06979259 -0.055957403 -0.02110696 -0.00011914969 0.036939498 -0.0014583776 -0.062061023 -0.049328934
0.029190572 0.07629768 -0.008399816 0.05025547 0.05184586 0.0039992575 0.030470721 -0.0076322085
-0.01043879 -0.17739235 -0.032241166 0.087983206 0.049637202 0.030727487 0.0061005536 0.05959028
-0.18550022 0.04083967 -0.012309438 -0.0070089856 -0.020085704 0.0018024495 -0.033308327 -0.29256815
0.0058162115 -0.08676801 -0.010021399 -0.027274854 0.0680172 0.06148915 0.048621763 -0.015899811
0.027155448 0.039723366 -0.028725 0.0054775197 -0.012159343 0.0023608045 -0.043527275 -0.010903127
0.06750776 0.013610157 -0.0007865379 -0.03096101 0.06907016 -0.20753993 -0.116936095 0.025067765
0.05917568 -0.08126324 -0.031552218 0.124464996 0.0016009598 0.18517938 0.019590713 -0.032174036
0.22118892 0.024811381 -0.015292803 -0.009378926 0.0634857 0.08105953 -0.028051844 -0.21462843

linear4.bias f4 [3]
00000000: b0b3 2f3f 85ca 3f3f c445 5c3f
0.68633556 0.74918395 0.86043954
