models/defense_model_v1.pth (torch, 538764 bytes, 8 tensors)

linear1.weight f4 [256, 5]
0.00010107065 -0.34171218 -0.059872076 -0.36152124 0.8208628 -0.31652972 -0.07608343 -0.577128
0.047432937 0.8455127 -0.2870314 -0.2682506 -0.0049936776 -1.0446628 0.6489516 0.17639114
-0.0628232 0.12438111 2.4109404 -0.4224478 -0.2789039 -0.22033088 -0.25680888 -0.119927496
0.20880556 0.061425634 -0.0714928 -0.07225123 -2.4621456 -0.04705784 -0.51201767 -0.043620862
-0.13807459 -0.9590917 -0.04539348 -0.28302255 -0.014623056 0.21640092 1.0829151 3.0444071
0.009958804 -0.04159605 -0.007662988 1.7093247 -1.1047518 -0.42648184 -0.42843246 -0.022161083
-0.32512397 0.0537915 -0.37382615 -0.14976355 -0.004386195 -0.07476434 -0.06300275 -0.81071967
-0.21159472 0.038267046 0.9236681 0.6320835 0.14166239 -0.019409467 0.000708283 1.7251186
2.2433975 -0.34623078 0.059566524 0.3549373 2.2516153 -0.112163596 -0.053574737 -0.3334982
0.039787997 2.442509 -2.0718913 -0.51027983 -0.6983362 0.1425823 1.8712376 0.025768582
-0.32687223 -0.44567302 0.38958654 -0.48449686 -0.6912745 -0.20820804 -0.13939527 -0.1472838
-0.14567542 0.22830822 -0.32581005 -0.32422185 -0.0075225024 0.40430623 -0.11615335 -0.42012417
-0.17617628 -0.39930692 -0.26343066 0.23978125 0.16687563 -0.18787299 -1.083231 0.81334066
-1.0946187 0.15427022 -0.2882208 -0.6946931 1.3239294 -0.8477587 0.027201103 -0.42511636
-0.4100556 0.40759078 -0.35007706 -0.28939217 -0.6186875 -2.9415954e-05 -0.29538304 -0.08187629
-0.39925334 -0.23733296 -1.259108 0.08615237 -0.46430552 -0.205218 -0.0053778063 -0.61004674
1.905104 -0.7554354 -0.23470892 -0.3703285 -0.3932613 0.43081528 0.07500732 -0.0225388
-0.020193592 -0.05028493 -2.4041598 0.08838501 0.3862221 0.13549194 -0.16241664 1.7730644
1.1113415 0.0742153 -0.053779718 -0.20980595 -0.13947442 -2.2274542 -0.061472658 -0.5209588
-0.336499 -0.42355022 0.14622349 -0.10225399 -0.31787705 -0.041266445 -0.710411 -0.72184134
0.22321227 -0.018933244 -0.062284995 1.9460641 2.0028853 -0.069114365 0.061909884 -0.34060842
-0.68131965 -2.9947875 0.11089496 -0.22578388 -0.025023783 -1.421211 -0.4051631 -0.120752245
-0.19221668 -0.19465108 -0.34103853 -0.05136379 -0.041969243 -0.3079312 -0.7847854 -0.28051135
0.56052953 -0.048433263 -0.43671808 -0.46380833 0.383166 0.23703672 -2.3966467 -0.16230597
-0.010612954 0.4753745 -0.0031631424 -0.36246738 -0.45126328 0.0034873493 0.9881417 -0.24780056
0.2590863 -0.13698317 -0.38526952 1.804564 -0.30607942 -0.09520906 -0.09805481 -0.08071655
-0.055360593 0.18062194 -4.0926456 0.086098716 -0.068137795 -0.11855428 -0.716114 0.42103532
-0.7431812 -0.35485536 -1.4935935 0.02330436 -0.0053978125 -0.38463998 -0.05451121 0.29114258
0.29423445 0.4198698 0.07912073 -0.42910367 0.44962496 -1.1737709 -0.40177277 -0.38901725
-0.29979774 0.3010264 -0.2957627 0.28065458 -0.17384355 -0.42901134 1.6257936 0.32673362
-0.2521821 -0.36117956 0.20803638 -1.5698925 -0.63652664 -0.19476163 0.17046621 -0.34904802
1.4395618 -2.923997 0.05486501 0.14656593 -0.058493905 4.0615363 -0.4506318 -1.0060662
00000000: e4f5 d338 e6f4 aebe 6c3c 75bd 5019 b9be
00000010: 1124 523f 2f10 a2be a1d1 9bbd a9be 13bf
00000020: 0a49 423d 8573 583f c8f5 92be 2558 89be
00000030: 01a2 a3bb 83b7 85bf b121 263f e19f 343e
00000040: 73a9 80bd 86bb fe3d d94c 1a40 144b d8be
00000050: 7ecc 8ebe 6b9e 61be 747c 83be 8c9c f5bd
00000060: 20d1 553e 7299 7b3d d16a 92bd 74f8 93bd
00000070: cb93 1dc0 b9bf 40bd 9713 03bf caab 32bd
00000080: 6d63 0dbe 0987 75bf 84ee 39bd 55e8 90be
00000090: 8b95 6fbc 3498 5d3e f69c 8a3f 91d7 4240
000000a0: 402a 233c 9f60 2abd cd19 fbbb 27cb da3f
000000b0: 8268 8dbf d45b dabe 805b dbbe 298b b5bc
000000c0: a676 a6be 7a54 5c3d 2466 bfbe 9e5b 19be
000000d0: 12ba 8fbb 0c1e 99bd 9607 81bd 538b 4fbf
000000e0: 49ac 58be e8bd 1c3d 8375 6c3f 39d0 213f
000000f0: f20f 113e 9a00 9fbc 11ac 393a b0d0 dc3f
00000100: d393 0f40 2945 b1be 07fc 733d 57ba b53e
00000110: 771a 1040 07b6 e5bd 2f71 5bbd 47c0 aabe
00000120: bdf8 223d 1152 1c40 de99 04c0 b3a1 02bf
00000130: 29c6 32bf 1801 123e b784 ef3f a218 d33c
00000140: cc5b a7be 412f e4be e377 c73e f90f f8be
00000150: 5ef7 30bf 7d34 55be a2bd 0ebe 91d1 16be
00000160: f02b 15be a1c9 693e 93d0 a6be 6800 a6be
00000170: 537f f6bb 3a01 cf3e cfe1 edbd 841a d7be
00000180: 8e67 34be f571 ccbe 62e0 86be 3789 753e
00000190: 72e1 2a3e c761 40be 50a7 8abf 1837 503f
000001a0: 771c 8cbf 03f9 1d3e ad91 93be 68d7 31bf
000001b0: 8576 a93f b706 59bf d9d4 de3c daa8 d9be
000001c0: cff2 d1be bdaf d03e 4d3d b3be 362b 94be
000001d0: 4e62 1ebf 48c2 f6b7 723c 97be c2ae a7bd
000001e0: ef6a ccbe 6907 73be 732a a1bf a770 b03d
000001f0: 74b9 edbe ab24 52be 4f38 b0bb 062c 1cbf
00000200: 73da f33f 3764 41bf 8957 70be b29b bdbe
00000210: 8c59 c9be d293 dc3e 709d 993d 4aa3 b8bc
00000220: 086d a5bc 92f7 4dbd c1dd 19c0 3303 b53d
00000230: e7be c53e 66be 0a3e 8c50 26be c6f3 e23f
00000240: 7040 8e3f 31fe 973d 1f48 5cbd 5fd7 56be
00000250: 62d2 0ebe 9c8e 0ec0 c1ca 7bbd 8e5d 05bf
00000260: 9949 acbe 93db d8be 9cbb 153e 8a6a d1bd
00000270: c8c0 a2be 0107 29bd 7fdd 35bf 98ca 38bf
00000280: c291 643e e419 9bbc 8d1e 7fbd a118 f93f
00000290: 462f 0040 d58b 8dbd 3895 7d3d 3a64 aebe
000002a0: f76a 2ebf 99aa 3fc0 e61c e33d e433 67be
000002b0: adfe ccbc 3eea b5bf 8a71 cfbe f44c f7bd
000002c0: 73d4 44be 9d52 47be 9a9c aebe d662 52bd
000002d0: f1e7 2bbd 29a9 9dbe b2e7 48bf 2f9f 8fbe
000002e0: dd7e 0f3f f561 46bd 8399 dfbe 4978 edbe
000002f0: 552e c43e c1b9 723e a962 19c0 8933 26be
00000300: f5e1 2dbc 4964 f33e b94c 4fbb 5395 b9be
00000310: fb0b e7be 038c 643b dbf6 7c3f 6ebf 7dbe
00000320: f6a6 843e 5145 0cbe 0c42 c5be f4fb e63f
00000330: 71b6 9cbe f8fc c2bd f6d0 c8bd b84e a5bd
00000340: cac1 62bd f5f4 383e f4f6 82c0 8654 b03d
00000350: d48b 8bbd 96cc f2bd 3f53 37bf f191 d73e
00000360: 2041 3ebf 9aaf b5be 122e bfbf c9e8 be3c
00000370: 22e0 b0bb 88ef c4be 2647 5fbd a410 953e
00000380: e6a5 963e 2df9 d63e 0d0a a23d 7ab3 dbbe
00000390: 3e35 e63e 203e 96bf 29b5 cdbe 452d c7be
000003a0: 177f 99be 2220 9a3e 356e 97be f5b1 8f3e
000003b0: 0b04 32be 60a7 dbbe 011a d03f a149 a73e
000003c0: 031e 81be 87ec b8be 7d07 553e 3df2 c8bf
000003d0: 69f3 22bf 986f 47be b28e 2e3e 6cb6 b2be
000003e0: 9043 b83f c422 3bc0 22ba 603d 6115 163e
000003f0: 4e97 6fbd 1bf8 8140 36b9 e6be c7c6 80bf

linear1.bias f4 [256]
0.050526075 -0.053837217 0.6821883 -2.1996915 -0.104118645 2.1906748 0.54768497 -0.87753904
-0.42074043 -0.32481533 -0.42958054 -0.26023528 -1.4991817 -1.7084296 1.4217958 -1.4680661
0.13349776 -0.030455306 -0.25646627 -0.11669376 -0.22304617 -0.2991318 -0.2456165 -0.24044843
-0.79166245 -0.13053961 -0.36120272 2.446605 -1.1080528 -0.15040737 0.18806021 0.087436385
-1.5910716 0.8692779 1.1913494 -0.07442725 -0.26097816 -0.55465156 -0.12802675 -1.0732968
-0.5435625 -0.15743148 0.94357103 0.8161866 -0.11852296 -0.86793315 -0.0056101778 -1.3335112
1.011698 0.7926786 -2.258928 -0.25819588 1.1818328 -0.84063756 -0.40047404 -1.4500923
2.4064808 -0.016782563 -0.096586004 -0.26944578 -0.47405005 -1.5084617 -0.9119546 -1.3991103
-0.4036055 0.33468753 0.7495095 -0.9451568 1.0041615 0.10923334 0.027026972 1.4870834
-1.0825231 -0.20964934 1.4838803 0.704985 -0.8482998 0.42096946 0.271529 0.6089983
-0.6337069 0.08375059 0.4660515 -0.87666374 -0.18500084 1.137324 -0.56044745 -0.24546634
-0.4831271 0.19126227 0.019208577 -0.17238298 -0.37239838 1.7100629 -0.8873536 -0.48835286
-0.11283769 -0.34752363 -0.6784122 0.77016205 -0.17880446 -0.8907952 0.38066632 -0.7893292
0.32084572 0.6809277 -1.7195636 -1.6259599 -0.50691146 -0.5800327 0.9273077 -0.5301196
-0.28013015 -1.4710996 -2.2271335 -0.098336965 -0.58381456 -1.1625419 1.6070511 0.23852399
-1.5043827 -2.2345104 0.3884756 0.005338161 0.09363246 -0.1590401 -0.81907576 -1.413811
-0.1914854 0.29847813 0.38884732 -0.11487278 0.658364 0.857123 -0.7476525 0.32071218
-0.27679878 -0.5900878 -1.8548933 0.1262141 0.25315323 -0.66903025 -0.99488294 0.052731514
-0.5365123 0.27344346 -0.43606216 0.12743372 -0.17704807 -0.95708734 0.83454937 -0.74973494
-0.6336862 0.64518 -1.7545264 1.0275812 0.007563104 0.07781893 0.33306533 0.16206507
-0.36981758 0.08817694 -0.37853375 0.014282227 -0.056873064 0.66605043 -0.047433406 0.05546953
2.033581 0.16262716 0.3415424 -0.095509194 1.1217651 -0.98710823 -0.9512298 0.072699025
-0.23283304 -1.9004731 -0.079860814 0.10276165 -0.8602827 0.8121372 0.5078207 0.016913245
-1.7441741 0.38468242 0.9284207 -0.23030105 -0.25931984 0.54920226 -0.018605089 -0.12528603
0.016172742 0.44823068 0.41416815 -0.23212539 1.1801145 -0.4212254 -0.41691402 0.3599638
-0.304376 -0.15921305 -1.5988564 0.59601337 1.0931958 -1.0299859 -0.103621446 -0.67228746
-0.8758092 -0.18588518 -0.9616727 0.20815295 -0.03007181 -0.40962154 -0.5121842 -0.045138426
0.32758632 0.7549854 -0.3246956 0.4164787 -0.17969245 -0.723677 -0.33906627 -0.012566441
0.40106955 0.0051194737 -0.57111347 -0.55434215 -0.14196475 0.5943318 1.0501851 0.08149628
-0.4596143 -0.4491988 1.4118446 -0.40044382 -0.33879519 0.20265295 -1.2182184 -1.392147
0.041309565 0.3123738 -0.5699557 0.5524557 -1.1051623 -0.1692644 -0.66334045 -0.34444198
-0.14694892 0.65067667 -0.36179453 -0.005132458 0.16136868 -0.10368224 0.2957815 0.31362763
00000000: 6ef4 4e3d 6a84 5cbd e4a3 2e3f bfc7 0cc0
00000010: 283c d5bd 0434 0c40 1535 0c3f 66a6 60bf
00000020: 4a6b d7be 324e a6be fbf1 dbbe 8f3d 85be
00000030: 30e5 bfbf d2ad dabf 68fd b53f 97e9 bbbf
00000040: a3b3 083e 687d f9bc 8c4f 83be 23fd eebd
00000050: 3766 64be ce27 99be e482 7bbe 1d38 76be
00000060: 64aa 4abf 2dac 05be 90ef b8be 2d95 1c40
00000070: add4 8dbf 6404 1abe db92 403e d911 b33d
00000080: 3ca8 cbbf ff88 5e3f 237e 983f 506d 98bd
00000090: ee9e 85be a5fd 0dbf 7219 03be ca61 89bf
000000a0: e926 0bbf b835 21be df8d 713f 9bf1 503f
000000b0: 2abc f2bd de30 5ebf 95d5 b7bb 7fb0 aabf
000000c0: 527f 813f fcec 4a3f 4792 10c0 4032 84be
000000d0: 4c46 973f 0634 57bf ef0a cdbe a09c b9bf
000000e0: c803 1a40 967b 89bc e2ce c5bd ccf4 89be
000000f0: b0b6 f2be 4615 c1bf db75 69bf 0c16 b3bf
00000100: 61a5 cebe 2a5c ab3e dbdf 3f3f ccf5 71bf
00000110: 5d88 803f bbb5 df3d ab67 dd3c c058 be3f
00000120: 1e90 8abf 51ae 56be caef bd3f e679 343f
00000130: 2d2a 59bf 4f89 d73e d905 8b3e 50e7 1b3f
00000140: 9e3a 22bf 6e85 ab3d 4d9e ee3e 096d 60bf
00000150: dc70 3dbe d593 913f 7c79 0fbf 875b 7bbe
00000160: 6f5c f7be 42da 433e 4e5b 9d3c 2a85 30be
00000170: 00ab bebe 57e3 da3f 9b29 63bf 6309 fabe
00000180: 7217 e7bd 9eee b1be 6cac 2dbf 5729 453f
00000190: 8418 37be 270b 64bf b2e6 c23e 7a11 4abf
000001a0: e445 a43e 4751 2e3f a91a dcbf 741f d0bf
000001b0: f3c4 01bf 067d 14bf 0a64 6d3f ebb5 07bf
000001c0: 386d 8fbe fe4c bcbf 5b89 0ec0 e464 c9bd
000001d0: df74 15bf 2cce 94bf dab3 cd3f a23f 743e
000001e0: 9d8f c0bf 3802 0fc0 46e6 c63e bdeb ae3b
000001f0: 60c2 bf3d 68db 22be f3ae 51bf c2f7 b4bf
00000200: c014 44be 20d2 983e ff16 c73e 6c42 ebbd
00000210: 8b8a 283f 6a6c 5b3f 2766 3fbf 6334 a43e
00000220: 92b8 8dbe fe0f 17bf 256d edbf 453e 013e
00000230: 4d9d 813e 9145 2bbf a6b0 7ebf 00fd 573d
00000240: df58 09bf c800 8c3e 8a43 dfbe fc7d 023e
00000250: 174c 35be ad03 75bf 07a5 553f a1ee 3fbf
00000260: 4239 22bf 842a 253f 5294 e0bf c887 833f
00000270: ead3 f73b 885f 9f3d 8a87 aa3e 63f4 253e
00000280: bb58 bdbe 1d96 b43d 2dcf c1be 0000 6a3c
00000290: bbf3 68bd 4882 2a3f 8849 42bd 0534 633d
000002a0: 3126 0240 bc87 263e a5de ae3e 539a c3bd
000002b0: 0096 8f3f 20b3 7cbf cc83 73bf 3ae3 943d
000002c0: c96b 6ebe b442 f3bf 118e a3bd b374 d23d
000002d0: 7d3b 5cbf 39e8 4f3f 8a00 023f a58d 8a3c
000002e0: 1941 dfbf 18f5 c43e fbac 6d3f 0ad4 6bbe
000002f0: 92c5 84be 8598 0c3f b369 98bc fb4a 00be
00000300: b37c 843c 7e7e e53e d90d d43e 47b2 6dbe
00000310: fe0d 973f dbaa d7be c175 d5be 2d4d b83e
00000320: 2cd7 9bbe bf08 23be 54a7 ccbf 5594 183f
00000330: d7ed 8b3f 94d6 83bf 7b37 d4bd 081b 2cbf
00000340: 0835 60bf af58 3ebe 2f30 76bf 0c26 553e
00000350: 2859 f6bc eab9 d1be 811e 03bf 12e3 38bd
00000360: 65b9 a73e b946 413f 803e a6be b23c d53e
00000370: 4c01 38be e542 39bf 189a adbe 79e3 4dbc
00000380: fd58 cd3e 42c1 a73b 7e34 12bf 5ee9 0dbf
00000390: 355f 11be 2126 183f 776c 863f 86e7 a63d
000003a0: 9152 ebbe 63fd e5be 53b7 b43f f906 cdbe
000003b0: 9076 adbe 4184 4f3e 95ee 9bbf df31 b2bf
000003c0: 3834 293d 75ef 9f3e 9ee8 11bf bd6d 0d3f
000003d0: f575 8dbf a653 2dbe aed0 29bf b35a b0be
000003e0: c779 16be bf92 263f 223d b9be 2e2e a8bb
000003f0: d53d 253e 5b57 d4bd ac70 973e cd93 a03e

linear2.weight f4 [256, 256]
-0.02808604 -0.059354875 -0.006719405 -0.012007518 0.008853249 0.016346525 -0.0114487335 -0.026085686
-0.046383504 -0.0447364 0.033228435 0.020519182 -0.10333637 -0.02474312 -0.0073339515 -0.07370149
-0.008811272 -0.013114445 0.051437743 -0.015136771 0.040353708 -0.07192874 -0.059475616 -0.05429396
-0.02432444 -0.04254724 -0.024872385 -0.04098082 -0.09298761 -0.008618393 -0.03547225 0.04027729
-0.08635008 -0.009380642 -0.07968359 0.04837157 0.007903645 0.017255351 -0.030386617 -0.003358495
-0.051929455 -0.045617722 -0.002851501 -0.0021924754 0.008337782 -0.029127607 0.013488241 0.025471985
0.06542682 -0.0012420426 -0.0091757355 0.054572016 -0.028795682 0.032990873 0.017009012 0.0037342927
-0.016747106 0.010844283 -0.059522733 0.06485804 -0.09233671 0.008627581 -0.08424507 -0.051949643
-0.048135266 -0.025267795 0.015076093 -0.01320751 -0.020902127 -0.061773293 -0.040330812 -0.04032398
-0.05603868 0.055598356 -0.038162775 -0.0539706 0.030959982 -0.044934224 -0.053081736 -0.036867756
-0.030690983 0.006357352 0.036771804 0.01994107 0.022207148 0.008254253 0.019099964 -0.02467393
-0.09528205 0.019841228 0.005556598 -0.046252348 0.002203934 -0.047840342 0.019083962 0.040654644
-0.034472242 -0.09964729 -0.011025377 -0.0030096727 -0.07457613 -0.034858465 0.01884602 0.037818976
0.025474489 0.0050872387 -0.018342758 0.008644498 -0.044802833 0.015422927 -0.07816391 -0.057852257
-0.0007225275 -0.054486733 -0.09585128 0.04538326 -0.052353673 -0.0695698 0.017114863 -0.068676956
-0.081280425 -0.028849345 0.04211189 -0.042425886 -0.057895534 -0.029421654 -0.03418286 -0.010489851
-0.054994173 0.032309756 -0.0073499456 -0.030448355 0.028193135 -0.029370803 -0.047276363 -0.0037894468
0.0002064912 -0.059715062 -0.050721925 -0.042960837 -0.085562795 -0.03983784 0.0040485393 -0.020408303
0.04560762 -0.06128469 0.01258789 0.033102997 0.037516654 -0.034338888 -0.044196535 -0.053808004
-0.07028655 0.020670151 -0.10181199 -0.0772102 -0.10322792 0.01673434 -0.0118520595 -0.03867493
-0.0768408 -0.01817726 0.037022114 -0.03639228 -0.051240165 0.023482911 0.030428344 -0.03355831
-0.05562681 0.010014586 -0.084448464 -0.031192902 -0.027957082 -0.06133266 0.030434463 -0.046231866
0.062286206 -0.002086907 0.05089982 0.011901118 -0.100266725 0.027151473 -0.02663672 -0.040875435
0.0020083382 -0.057642672 -0.011032311 0.036705673 -0.0045651416 -0.0077619455 -0.019730017 -0.035808854
-0.040855967 -0.046794564 0.044127893 -0.054097284 -0.058591574 -0.026516376 0.040061418 -0.08049974
-0.05698874 0.02378334 0.015720986 0.013085649 -0.07299268 -0.03780976 -0.018124355 0.021537073
-0.07541357 0.03851719 0.02152023 0.0014695749 -0.0047352444 0.05026638 0.013728328 -0.036488477
-0.052681804 -0.032061774 0.0018626703 0.011754543 -0.04013393 -0.02030454 -0.056837536 -0.07192367
0.0107084485 -0.057815544 0.034584742 0.030725341 -0.010216795 -0.018043695 -0.03139757 -0.075959906
0.033486314 -0.030691124 -0.056156024 -0.051475137 -0.053215705 -0.019184023 -0.06734688 0.018033445
-0.052199468 0.03759177 0.044629436 0.05652415 0.03248365 -0.0399285 -0.059160046 -0.035293564
-0.06458757 -0.021988416 0.041403294 -0.0827401 -0.048043758 -0.04933688 0.021429285 0.018376706
00000000: b214 e6bc 191e 73bd 742e dcbb 2ebb 44bc
00000010: 380d 113c 26e9 853c 7893 3bbc a6b1 d5bc
00000020: a1fc 3dbd 843d 37bd 8a1a 083d d817 a83c
00000030: 05a2 d3bd 15b2 cabc a551 f0bb cff0 96bd
00000040: 275d 10bc f8dd 56bc 62b0 523d 3800 78bc
00000050: ee49 253d 604f 93bd b49c 73bd 5863 5ebd
00000060: 0c44 c7bc 0446 2ebd 2cc1 cbbc 81db 27bd
00000070: 4a70 bebd 2934 0dbc 5a4b 11bd cdf9 243d
00000080: 50d8 b0bd 44b1 19bc 2631 a3bd 4421 463d
00000090: 4a7e 013c 185b 8d3c 5bed f8bc 321a 5cbb
000000a0: fbb3 54bd a6d9 3abd 40e0 3abb a2af 0fbb
000000b0: 319b 083c 059d eebc c8fd 5c3c a0aa d03c
000000c0: 7ffe 853d 09cc a2ba d355 16bc e886 5f3d
000000d0: ece4 ebbc 7021 073d 7c56 8b3c 09bb 743b
000000e0: 3a31 89bc 38ac 313c 1cce 73bd 4bd4 843d
000000f0: 071b bdbd b35a 0d3c ae88 acbd 26c9 54bd
00000100: 7c29 45bd 68fe cebc b801 773c 5064 58bc
00000110: f03a abbc fe05 7dbd ec31 25bd c22a 25bd
00000120: d188 65bd 1abb 633d 9250 1cbd 4710 5dbd
00000130: ca9f fd3c f30c 38bd 3c6c 59bd a502 17bd
00000140: a86b fbbc 5551 d03b 089e 163d 745b a33c
00000150: c4eb b53c d93c 073c 8777 9c3c fb20 cabc
00000160: 3c23 c3bd 128a a23c 1f14 b63b 1a73 3dbd
00000170: e06f 103b 3cf4 43bd f855 9c3c 7c85 263d
00000180: c432 0dbd e113 ccbd c8a3 34bc ee3d 45bb
00000190: 5fbb 98bd c0c7 0ebd f862 9a3c 12e8 1a3d
000001a0: e0af d03c dab2 a63b 8d43 96bc a7a1 0d3c
000001b0: 2d83 37bd 72b0 7c3c 6614 a0bd 7df6 6cbd
000001c0: 0068 3dba 7b2d 5fbd ad4d c4bd cce3 393d
000001d0: ce70 56bd 9c7a 8ebd 7834 8c3c 81a6 8cbd
000001e0: 5a76 a6bd 7655 ecbc 847d 2c3d c4c6 2dbd
000001f0: de23 6dbd ae05 f1bc 5403 0cbd a0dd 2bbc
00000200: 9241 61bd 3c57 043d d0d7 f0bb d46e f9bc
00000210: 4af5 e63c 0a9b f0bc dca4 41bd 5e58 78bb
00000220: 8f85 5839 c897 74bd cbc1 4fbd b4f7 2fbd
00000230: 8c3b afbd 012d 23bd 9ca9 843b 502f a7bc
00000240: 0ecf 3a3d a805 7bbd 703d 4e3c 0297 073d
00000250: 10ab 193d efa6 0cbd 6d07 35bd c865 5cbd
00000260: 65f2 8fbd 7354 a93c ce82 d0bd 6220 9ebd
00000270: 2969 d3bd 7416 893c 242f 42bc 9a69 1ebd
00000280: b65e 9dbd 7ae8 94bc 80a4 173d 1210 15bd
00000290: 35e1 51bd 3c5f c03c dd44 f93c 7074 09bd
000002a0: f0d8 63bd 3814 243c 51f3 acbd 4288 ffbc
000002b0: 4006 e5bc f537 7bbd b251 f93c a05d 3dbd
000002c0: d21f 7f3d 7dc4 08bb 547c 503d e8fc 423c
000002d0: a458 cdbd c46c de3c 4035 dabc 006d 27bd
000002e0: 539e 033b b91a 6cbd dec0 34bc b058 163d
000002f0: 2f97 95bb eb57 febb d8a0 a1bc 4eac 12bd
00000300: 9658 27bd a8ab 3fbd 73bf 343d 1d95 5dbd
00000310: b8fd 6fbd df38 d9bc 7117 243d 0cdd a4bd
00000320: 066d 69bd 47d5 c23c 4cc9 803c 3165 563c
00000330: 307d 95bd 68de 1abd 8779 94bc 846e b03c
00000340: 6e72 9abd 33c4 1d3d 324b b03c c09e c03a
00000350: 1c2a 9bbb 1fe4 4d3d c8ec 603c f174 15bd
00000360: e0c8 57bd 3553 03bd d824 f43a 2096 403c
00000370: 7a63 24bd b555 a6bc 7ace 68bd b84c 93bd
00000380: 7d72 2f3c fecf 6cbd bba8 0d3d b6b3 fb3c
00000390: 5864 27bc 5fd0 93bc bd9a 00bd de90 9bbd
000003a0: f228 093d f46b fbbc dc03 66bd 98d7 52bd
000003b0: b6f8 59bd d027 9dbc 29ed 89bd e0ba 933c
000003c0: 1ccf 55bd d4f9 193d 5bcd 363d de85 673d
000003d0: 930d 053d 118c 23bd ce51 72bd fc8f 10bd
000003e0: 7d46 84bd 0d21 b4bc 8096 293d a473 a9bd
000003f0: 88c9 44bd 7815 4abd 788c af3c bf8a 963c

linear2.bias f4 [256]
-0.08012566 -0.0074900943 -0.029585289 -0.00919681 -0.038971208 -0.13329765 -0.10512051 -0.42421946
-1.0323701 -0.055371925 -0.015576055 0.028523551 -0.09153821 -0.0052293018 0.012026429 -0.024868717
-0.020409282 -0.09256367 -0.055506255 -0.034965165 0.00090303866 0.10111001 -0.09785641 -0.0893912
-0.05328758 -0.34733108 -0.062030766 -0.07277428 -0.0665007 -0.09709595 -0.08624205 -0.059933286
-0.012352936 0.043262936 -0.03653185 0.042669706 0.13244553 0.021024149 -0.03748565 -0.14256346
-0.09908445 -0.030611314 -0.015887178 -0.07571896 -0.07827986 -0.03025786 -0.078406505 -0.097527325
0.001568995 -2.0028386 -0.053704355 -0.0058980086 -0.14674383 -0.12964149 -0.047897067 -0.10669861
0.0030617653 -0.0988795 -0.021071814 0.014944146 -0.109777 0.0065742615 -0.047397546 1.5554085
-0.021692138 -0.09989331 -0.060130905 -0.07144735 -0.05595004 -0.041775938 -0.116357155 -0.08580908
-0.040825065 -0.12787667 -0.19580546 -0.07424614 -0.16612539 -0.0783784 -0.06907893 -0.03799264
-0.05499482 -0.06408513 -0.06440981 -0.0998494 -0.048748452 -0.08494942 -0.07093105 -0.05108437
1.1989124 -0.034112822 -0.046060085 -0.11197347 -0.0044212374 -0.121824875 -0.034461055 -0.045767177
-0.10855834 -0.10689107 -0.04981073 -0.008659311 -0.14579931 -0.123129256 -0.11473207 0.022697221
0.02282166 -0.10339069 -0.027440267 -0.08501444 -0.10304978 -0.008059258 -0.12999247 -0.131695
1.3983728 -0.074918084 -0.02368288 -0.07747258 -0.077803895 -0.033150487 -0.11103955 -0.033205878
0.00954288 -0.013158651 -0.032978427 -0.017029764 -0.03376535 -0.027317384 -0.07041533 -0.083686285
-0.035496343 -0.039642196 -0.034845047 -0.105680995 -0.019786503 -0.118196465 1.1241913 -0.04592442
-0.08758965 0.011393463 -0.10084631 0.1093514 0.60974675 -0.043611795 -0.04445179 -0.014444662
-0.066874385 -0.08761712 0.010513919 -0.01448773 0.019046988 -0.11081768 -0.04400505 -0.031768937
0.024085382 -0.036591496 -0.02491849 -0.101360306 -0.02437183 -0.11669251 -0.02726497 -0.0023705442
-0.09708771 0.013565628 -0.07876765 -0.06338625 -0.074977 -0.068892986 -0.009179092 0.053170446
-0.10070498 -0.05558315 -0.12692532 0.032355327 0.02130389 -0.07392526 -0.040930677 -1.588053
-0.0017708959 -0.056799572 -0.06589804 -0.062878974 -0.037160102 -0.027046323 -0.02130265 -0.10949799
-0.06024694 -0.14335378 0.08356921 -0.052754447 -0.059377518 -0.11428668 -0.016711613 0.052074548
-0.06981026 -0.13759261 -0.096942104 -0.06557645 -0.020322729 -0.25882027 -1.1703787 0.026134709
-0.08230359 -0.049394194 -0.06487624 -0.054393463 -0.08319754 -0.00026300852 -0.071253 0.0024657242
-0.08326141 -0.03968348 -0.042762443 -0.0784838 -0.031714305 -0.013473814 -0.03033241 -0.12824135
-0.065349095 -0.09539893 -0.028336497 -0.16986051 -0.092445575 -0.01921675 -0.03446918 0.02059884
-0.13914627 -0.011985294 -0.07124721 -0.026473965 -0.084949024 -0.09462357 -0.04199025 -0.015442427
-0.082927674 -0.11777392 2.3306473e-05 -0.058943294 -0.07195531 0.07329546 -0.04653629 -0.049112525
-0.09199778 -0.05849868 -0.10445437 -0.078842685 -0.13636692 -0.08306802 -0.105218545 -0.057613865
-0.06526874 -0.04645214 -0.019633422 -0.08554888 -0.008514564 -0.073766984 0.17474876 -0.10391461
00000000: ec18 a4bd 776f f5bb d95c f2bc 38ae 16bc
00000010: 46a0 1fbd 2e7f 08be 6c49 d7bd 4b33 d9be
00000020: b424 84bf accd 62bd b632 7fbc 39aa e93c
00000030: 6378 bbbd 905a abbb 800a 453c 7bb9 cbbc
00000040: 5e31 a7bc 0592 bdbd 875a 63bd a237 0fbd
00000050: e6b9 6c3a c412 cf3d f168 c8bd bc12 b7bd
00000060: 1444 5abd 61d5 b1be f913 7ebd af0a 95bd
00000070: 8531 88bd 3eda c6bd ac9f b0bd 9b7c 75bd
00000080: f863 4abc 7a34 313d 6ca2 15bd 6ec6 2e3d
00000090: cd9f 073e d63a ac3c 8e8a 19bd 28fc 11be
000000a0: caec cabd 94c4 fabc d425 82bc 8b12 9bbd
000000b0: 3151 a0bd 55df f7bc 9793 a0bd 68bc c7bd
000000c0: bca6 cd3a 822e 00c0 19f9 5bbd 1544 c1bb
000000d0: 0444 16be bdc0 04be b72f 44bd cd84 dabd
000000e0: e6a7 483b 5681 cabd cc9e acbc 4bd8 743c
000000f0: c4d2 e0bd e76c d73b ee23 42bd a017 c73f
00000100: b6b3 b1bc dd94 ccbd d34b 76bd fd52 92bd
00000110: df2b 65bd 3f1d 2bbd a94c eebd acbc afbd
00000120: 2f38 27bd 1af2 02be 3a81 48be 5c0e 98bd
00000130: c61c 2abe db84 a0bd 4179 8dbd 2c9e 1bbd
00000140: 4042 61bd 113f 83bd 4ae9 83bd d87d ccbd
00000150: 75ac 47bd f6f9 adbd 4c44 91bd d83d 51bd
00000160: f675 993f e3b9 0bbd 80a9 3cbd 5952 e5bd
00000170: 07e0 90bb 527f f9bd 0927 0dbd 5d76 3bbd
00000180: d653 debd b5e9 dabd 5606 4cbd c8df 0dbc
00000190: 6a4c 15be 312b fcbd a6f8 eabd 86ef b93c
000001a0: 7df4 ba3c 80be d3bd 69ca e0bc 0d1c aebd
000001b0: c30b d3bd fa0a 04bc bf1c 05be 0edb 06be
000001c0: e1fd b23f a76e 99bd 9902 c2bc f2a9 9ebd
000001d0: a657 9fbd cec8 07bd b468 e3bd e302 08bd
000001e0: bd59 1c3c 6297 57bc 6314 07bd 0182 8bbc
000001f0: 894d 0abd b5c8 dfbc ea35 90bd b763 abbd
00000200: 9d64 11bd db5f 22bd aeb9 0ebd 476f d8bd
00000210: 4e17 a2bc fd10 f2bd 80e5 8f3f 3f1b 3cbd
00000220: 3462 b3bd a6ab 3a3c 8388 cebd a0f3 df3d
00000230: 5d18 1c3f 48a2 32bd 1513 36bd 4ea9 6cbc
00000240: 70f5 88bd 9b70 b3bd 9342 2c3c f25d 6dbc
00000250: 6e08 9c3c 61f4 e2bd a43e 34bd 2520 02bd
00000260: b54e c53c f7e0 15bd dc21 ccbc fe95 cfbd
00000270: 6fa7 c7bc 7cfc eebd c95a dfbc 225b 1bbb
00000280: ecd5 c6bd 5e42 5e3c ef50 a1bd a6d0 81bd
00000290: 8b8d 99bd c417 8dbd e763 16bc 41c9 593d
000002a0: 6a3e cebd 28ab 63bd b6f8 01be 0587 043d
000002b0: 7f85 ae3c 2066 97bd eda6 27bd 5245 cbbf
000002c0: 681d e8ba aba6 68bd 8df5 86bd b1c6 80bd
000002d0: 3135 18bd 4090 ddbc e582 aebc 7b40 e0bd
000002e0: 7fc5 76bd 55cb 12be 5526 ab3d 0c15 58bd
000002f0: d735 73bd 230f eabd cbe6 88bc 1f4c 553d
00000300: aef8 8ebd 14e5 0cbe 9589 c6bd f24c 86bd
00000310: da7b a6bc 1784 84be f8ce 95bf 7518 d63c
00000320: c98e a8bd 9151 4abd d6dd 84bd aecb 5ebd
00000330: 7963 aabd 68e4 89b9 18ed 91bd fd97 213b
00000340: f584 aabd 258b 22bd ac27 2fbd 1dbc a0bd
00000350: dce6 01bd 46c1 5cbc ad7b f8bc b351 03be
00000360: bfd5 85bd 8460 c3bd f121 e8bc eaef 2dbe
00000370: 1b54 bdbd 726c 9dbc 8e2f 0dbd e6be a83c
00000380: 5c7c 0ebe f75d 44bc 0fea 91bd eedf d8bc
00000390: c1f9 adbd 01ca c1bd f8fd 2bbd 3c02 7dbc
000003a0: fcd5 a9bd 7433 f1bd 4582 c337 866e 71bd
000003b0: 4e5d 93bd ee1b 963d d69c 3ebd 372a 49bd
000003c0: 5569 bcbd 509c 6fbd 2cec d5bd 4678 a1bd
000003d0: c5a3 0bbe 911f aabd d27c d7bd 84fc 6bbd
000003e0: 9eab 85bd 9944 3ebd 45d6 a0bc 4034 afbd
000003f0: ab80 0bbc 2513 97bd 57f1 323e 2fd1 d4bd

linear3.weight f4 [256, 256]
0.028976172 0.0120141 -0.031562068 0.057183236 0.050257243 -0.008495506 0.06612002 -0.028574115
-0.10021359 -0.01914171 -0.027445532 -0.03983349 -0.053996664 0.06511388 0.039350063 0.013774174
-0.033884145 -0.054323122 0.0077525023 0.09329305 -0.061673965 0.06747082 0.008171901 -0.037059978
0.059112057 -0.032850895 0.037096374 0.017225917 -0.04376282 0.04536713 -0.0004985329 0.03275248
0.00895318 0.035722874 -0.043204963 0.08225653 -0.015837848 -0.0272224 0.047021188 -0.025691805
0.0559443 -0.027583906 -0.05604439 0.035342928 -0.06777105 0.041034482 -0.011400794 0.062761486
-0.027632292 -0.13905695 -0.015724394 0.042952515 0.015673816 0.04497756 0.03405109 -0.041082054
-0.04683703 0.02075077 0.03675817 0.052120417 -0.018576892 0.0041793436 0.05503442 -0.15048347
-0.002124411 0.026186379 0.007723955 0.018552495 0.018249638 0.00033419346 0.0474526 0.047516458
-0.010820776 0.029080754 -0.06517188 0.045401458 0.037734367 -0.030199638 -0.0036109574 -0.035743013
0.03604692 0.008312618 0.04910406 -0.028113617 -0.015074317 -0.02254101 0.04951662 -0.023586562
-0.045173623 -0.002192757 -0.06039346 0.05651575 -0.04393472 -0.04654433 -0.020567976 -0.02139785
-0.009997521 0.05516119 0.03313037 0.012024787 -0.043744653 0.058965866 -0.019879973 0.043676466
-0.010390973 -0.058930773 -0.10216133 0.0273462 0.016058365 0.043976326 0.03154594 -0.05326631
-0.093329296 0.0554504 -0.024402611 0.04409177 0.060579676 -0.040638503 0.024694553 -0.054394796
-0.025722764 0.0024271247 0.053523615 0.0053854445 0.030341737 0.036597077 0.015411239 -0.028893672
0.04166449 0.021166448 0.0056094187 -0.024936905 0.02707558 0.04346403 -0.04661763 0.03882204
-0.023327485 -0.03980502 -0.048047602 0.041569423 0.0074585457 0.015545458 -0.005178226 0.009521628
-0.010031134 -0.05702044 0.022482589 0.052111026 -0.036619574 0.016714113 0.052406933 -0.0153846815
-0.052862905 -0.05457438 0.028999664 0.0734297 0.00946752 -0.033542026 -0.037171654 0.020070625
-0.02631897 -0.046139583 -0.012363418 0.06372996 -0.040212456 0.06244745 -0.048488546 0.015605979
-0.030618332 -0.055842645 0.06335305 -0.03134537 -0.010123263 0.025048848 0.006652817 -0.06418569
-0.038125664 0.0037715647 -0.037471514 0.006460257 -0.008667765 0.046816956 -0.033332225 -0.011315078
0.062324896 -0.023114614 -0.1393518 0.061393548 -0.032043964 -0.0427121 -0.0270672 -0.11032175
0.015857492 0.0015936531 -0.08072122 -0.0004558348 0.056524582 0.010283546 0.010970436 -0.046834204
-0.053204276 -0.001154581 0.021214938 0.04057284 -0.0068598604 0.042126846 -0.020403268 -0.04313772
-0.024248444 -0.0035957946 -0.0117422715 0.07326826 0.02446834 -0.057295136 -0.05736495 -0.030476224
-0.055317394 -0.0037585928 -0.023384629 -0.0041102148 0.010144405 -0.0836169 -0.027758347 -0.014600015
0.029439062 0.02786248 0.028026737 -0.012180485 0.10034413 0.0020554292 0.042134836 -0.029120678
0.023688376 0.041612364 -0.047454108 -0.015171848 -0.018893493 0.0065882597 -0.066267766 -0.020505093
-0.01998628 -0.04270798 6.029138e-05 0.047829438 0.007969654 0.04390654 0.036549322 0.05087476
-0.003002009 -0.025029821 0.02798265 0.007855025 -0.0041815154 0.03153961 -0.019979395 0.044545293
00000000: 705f ed3c cad6 443c 3a47 01bd f838 6a3d
00000010: 8ada 4d3d bc30 0bbc ef69 873d 4314 eabc
00000020: c83c cdbd 13cf 9cbc 74d5 e0bc 7128 23bd
00000030: 9b2b 5dbd 6d5a 853d 882d 213d 13ad 613c
00000040: 1aca 0abd ec81 5ebd b408 fe3b 6d10 bf3d
00000050: d79d 7cbd 242e 8a3d 70e3 053c 34cc 17bd
00000060: 7c1f 723d a98e 06bd 5ef2 173d 5e1d 8d3c
00000070: a540 33bd e2d2 393d faaf 02ba 7727 063d
00000080: 5cb0 123c 2652 123d b0f7 30bd 1d76 a83d
00000090: 60be 81bc 8301 dfbc 4a99 403d 9f77 d2bc
000000a0: da25 653d a5f7 e1bc cd8e 65bd bfc3 103d
000000b0: 8ccb 8abd c613 283d 65ca 3abc 1889 803d
000000c0: 1e5d e2bc f264 0ebe 72d0 80bc faee 2f3d
000000d0: 6066 803c 643a 383d 2879 0b3d a845 28bd
000000e0: 30d8 3fbd 85fd a93c bc8f 163d 387c 553d
000000f0: 912e 98bc e0f2 883b c66b 613d 5718 1abe
00000100: b439 0bbb d184 d63c 3b19 fd3b 67fb 973c
00000110: 4480 953c b036 af39 a85d 423d 9ea0 423d
00000120: a049 31bc c33a ee3c d678 85bd e1f6 393d
00000130: 5a8f 1a3d 3b65 f7bc d0a5 6cbb 4467 12bd
00000140: efa5 133d a631 083c 5721 493d 874e e6bc
00000150: 45fa 76bc eda7 b8bc f0d1 4a3d 9b38 c1bc
00000160: fa07 39bd 5cb4 0fbb 225f 77bd 0f7d 673d
00000170: e5f4 33bd 44a5 3ebd 2c7e a8bc 8b4a afbc
00000180: a4cc 23bc b3f0 613d b6b3 073d 9d03 453c
00000190: 982d 33bd 3186 713d 53db a2bc 18e6 323d
000001a0: e63e 2abc 6561 71bd f639 d1bd 2305 e03c
000001b0: d58c 833c 8520 343d 5136 013d c62d 5abd
000001c0: 6e23 bfbd f51f 633d fce7 c7bc 9299 343d
000001d0: 6522 783d 8f74 26bd 3b4c ca3c 14cd 5ebd
000001e0: 8cb8 d2bc 6510 1f3b 943b 5b3d 6278 b03b
000001f0: 3c8f f83c d1e6 153d 6c7f 7c3c 6cb2 ecbc
00000200: 62a8 2a3d 4265 ad3c 37cf b73b 7b48 ccbc
00000210: 9bcd dd3c 5707 323d 21f2 3ebd dc03 1f3d
00000220: 4819 bfbc 970a 23bd 90cd 44bd b344 2a3d
00000230: d166 f43b 60b2 7e3c 1cae a9bb 9a00 1c3c
00000240: a059 24bc 448e 69bd 682d b83c 5f72 553d
00000250: 68fe 15bd 09ec 883c a7a8 563d 0810 7cbc
00000260: c686 58bd 6389 5fbd b490 ed3c 5062 963d
00000270: a81d 1b3c 5d63 09bd 4e41 18bd 276b a43c
00000280: e19a d7bc dcfc 3cbd ef8f 4abc da84 823d
00000290: d1b5 24bd e6c8 7f3d ed9b 46bd 38b0 7f3c
000002a0: 4cd3 fabc 42bb 64bd 3ebf 813d 0164 00bd
000002b0: 0bdc 25bc 3e33 cd3c e0ff d93b c973 83bd
000002c0: a829 1cbd 5b2c 773b bb7b 19bd 90b0 d33b
000002d0: 3e03 0ebc 23c3 3f3d 5f87 08bd e062 39bc
000002e0: 6448 7f3d dc5a bdbc 3db2 0ebe cd77 7b3d
000002f0: 8840 03bd e2f2 2ebd 08bc ddbc 5ff0 e1bd
00000300: 92e7 813c 20e2 d03a 2b51 a5bd 1cfd eeb9
00000310: 5286 673d 517c 283c 58bd 333c 39d5 3fbd
00000320: baec 59bd 4f55 97ba f3ca ad3c b52f 263d
00000330: aec8 e0bb 338d 2c3d c124 a7bc 2eb1 30bd
00000340: aca4 c6bc 6ca7 6bbb a862 40bc ab0d 963d
00000350: d471 c83c 4eae 6abd 83f7 6abd 46a9 f9bc
00000360: 7e94 62bd b952 76bb 1f91 bfbc fbae 86bb
00000370: b834 263c 563f abbd 7965 e3bc e734 6fbc
00000380: 302a f13c db3f e43c 5498 e53c a890 47bc
00000390: 3981 cd3d 61b4 063b 9495 2c3d 7d8e eebc
000003a0: 200e c23c ba71 2a3d 3d5f 42bd 5893 78bc
000003b0: 87c6 9abc 54e2 d73b 65b7 87bd 4cfa a7bc
000003c0: 44ba a3bc 90ee 2ebd 60e1 7c38 cde8 433d
000003d0: 2793 023c 58d7 333d beb4 153d 0d62 503d
000003e0: 5abd 44bb 570b cdbc df3b e53c 5db2 003c
000003f0: 1805 89bb ae2f 013d d4ab a3bc 2075 363d

linear3.bias f4 [256]
-0.10544951 -0.25078884 -0.31471416 -0.12500717 -0.24035071 -0.024279905 1.3442446 -0.1301078
-0.096129015 -0.13858406 -0.11869809 -0.04870147 -0.13968731 -0.16922699 -0.11232903 -0.22560057
-0.21396454 -0.17199743 -0.27080587 -0.34366465 -0.27033237 1.3423266 -0.07438535 -0.218029
-0.49335182 0.30831072 -0.6007828 -0.10412265 -0.11843738 -0.3460027 -0.18491778 -0.17914557
-0.059440333 -0.111865826 0.41172233 -0.07205452 -0.33340263 0.16559657 -0.060254365 -0.4196884
-0.18199497 -0.17253788 -0.038665235 -0.08813263 -0.004388517 -0.17637345 -0.1718784 -0.059960153
0.14993367 1.2999163 0.8350142 -0.17117313 -0.100368105 -0.21314195 -0.19689639 -0.15130776
-0.18174294 -0.14225888 -0.08306103 -0.13994507 -0.065186344 -0.069670066 -0.15128364 -0.068529904
-0.16425598 -0.09473301 -0.06900908 -0.18265751 -0.19376718 -0.034741115 -0.15403207 -0.09310068
0.74292433 -0.13100842 -0.034779012 -0.121035606 -0.22784111 -0.21780375 -0.2015378 -0.0045680865
-0.20507021 -0.25084782 -0.248129 -0.05863403 0.4482219 -0.2782444 -0.24572437 -0.04611227
-0.121360235 -0.22175431 0.88734484 -0.13607053 -0.2225987 -0.26056743 -0.0974019 -0.16508368
0.23048025 -0.30616155 -0.16027924 -0.09949924 -0.10539769 0.229392 -0.13404079 0.4571316
-0.92748034 -0.10240546 0.036964554 -0.1393857 -0.1245211 -0.3760196 0.033190954 -0.40226296
-0.06886151 -0.19861674 -0.32064232 -0.110831395 -0.21521555 -0.2099957 -0.361882 -0.22827497
-0.19804034 -0.006438701 -0.16855094 -0.0075461026 2.67139 -0.31782266 -0.25476646 -0.39593512
-0.20805445 -0.015877692 0.23884289 -0.06718214 -0.10053044 -0.0320931 -0.12579526 -0.60726285
-0.036537725 -0.06525338 -0.2637418 0.034889054 -0.38151076 -0.13153158 0.58589303 0.7532128
-0.24749582 -0.29019523 -0.19655849 -0.087833285 -0.16609433 -0.09890377 -0.058142513 -0.05788128
-0.13511227 -0.20372479 -0.170725 -0.04418255 -0.18852866 -0.3926166 -0.7583571 -0.11150797
-0.17462818 -0.25075096 -0.24542844 -0.39936885 -0.14884019 0.244996 -0.15360053 1.4773782
-0.18654841 -0.15477584 -0.19048217 -0.26914403 -0.12911418 -0.10687806 -0.056743715 0.67179656
-0.18044145 -0.23044811 -0.14201835 -0.21154474 -0.25776303 -0.15551598 -0.056858398 0.45760775
-0.04426175 -0.16498055 -0.22583313 -0.13848221 -0.049474455 -0.17752618 0.46685225 -0.21651666
-0.16605808 0.20048782 -0.24181041 0.21046287 -0.16006069 -0.17485751 -0.11806809 -0.15678453
0.24204881 0.91057825 -0.18597041 -0.18794188 -0.16369565 -0.24550124 -0.031222822 -0.45039752
0.16322258 -0.0017904664 -0.11220522 -0.10047271 -0.21446395 -0.1978979 -0.12581655 0.1420515
-0.17485201 0.09386787 -0.22449605 -0.078811154 -0.024122447 1.106755 -0.2611565 -0.03226888
-0.16979113 0.4237848 -0.18799946 -0.13830146 -0.16003837 -0.29271114 -0.33563843 -0.1474198
-0.510454 -0.09604701 -0.15782617 -0.11141336 -0.33974454 0.42773905 0.47762504 -0.2590792
-0.13624394 -0.112682834 -0.12862088 1.747078 -0.111304395 -0.15513107 -0.06027928 1.892361
-0.085670814 -0.17324305 -0.115338445 0.12465321 -0.10214257 3.0409248 -0.26182684 0.21696109
00000000: eaf5 d7bd 6567 80be 3722 a1be e101 00be
00000010: 7f1e 76be a7e6 c6bc 3510 ac3f fb3a 05be
00000020: 4adf c4bd fbe8 0dbe fc17 f3bd 317b 47bd
00000030: 310a 0fbe d749 2dbe c30c e6bd d603 67be
00000040: 8519 5bbe 1820 30be 11a7 8abe d0f4 afbe
00000050: 0169 8abe 5cd1 ab3f 5957 98bd ff42 5fbe
00000060: 9c98 fcbe e7da 9d3e e7cc 19bf 423e d5bd
00000070: 4c8f f2bd 4427 b1be 165b 3dbe f071 37be
00000080: b577 73bd e919 e5bd 45cd d23e 5291 93bd
00000090: c0b3 aabe 2692 293e 48cd 76bd 66e1 d6be
000000a0: e45c 3abe c5ad 30be 705f 1ebd e17e b4bd
000000b0: 8ccd 8fbb 3e9b 34be e400 30be c798 75bd
000000c0: 3688 193e a863 a63f 7ec3 553f 0248 2fbe
000000d0: cb8d cdbd e241 5abe 359f 49be 6cf0 1abe
000000e0: d21a 3abe 50ac 11be e71b aabd c34d 0fbe
000000f0: 6b80 85bd 2eaf 8ebd 19ea 1abe 6859 8cbd
00000100: b832 28be 6103 c2bd a254 8dbd 920a 3bbe
00000110: e76a 46be b34c 0ebd 95ba 1dbe 92ab bebd
00000120: 4a30 3e3f 1227 06be 7074 0ebd 84e1 f7bd
00000130: 2e4f 69be f207 5fbe ed5f 4ebe e3af 95bb
00000140: edfd 51be 206f 80be 8715 7ebe 3d2a 70bd
00000150: 577d e53e 0d76 8ebe 2b9f 7bbe 38e0 3cbd
00000160: b78b f8bd 9013 63be 0829 633f 1356 0bbe
00000170: eaf0 63be 1869 85be a67a c7bd b20b 29be
00000180: 0403 6c3e 35c1 9cbe 3e20 24be 42c6 cbbd
00000190: beda d7bd bde5 6a3e fd41 09be 270d ea3e
000001a0: 5a6f 6dbf f4b9 d1bd 2568 173d 20bb 0ebe
000001b0: eb04 ffbd a485 c0be 3df3 073d 69f5 cdbe
000001c0: 4307 8dbd 3062 4bbe 3b2b a4be 92fb e2bd
000001d0: 7761 5cbe 1d09 57be 9948 b9be eac0 69be
000001e0: 16cb 4abe bdfb d2bb 9e98 2cbe 4c45 f7bb
000001f0: 0ef8 2a40 a7b9 a2be c070 82be 02b8 cabe
00000200: 3a0c 55be ef11 82bc 3b93 743e ca96 89bd
00000210: e7e2 cdbd 0e74 03bd 79d0 00be 9475 1bbf
00000220: 95a8 15bd 90a3 85bd 2a09 87be d3e7 0e3d
00000230: 6155 c3be 37b0 06be 16fd 153f 8ed2 403f
00000240: 8b6f 7dbe 7894 94be a146 49be f0e1 b3bd
00000250: a214 2abe 0f8e cabd d826 6ebd ec14 6dbd
00000260: df5a 0abe 3b9d 50be 89d2 2ebe c3f8 34bd
00000270: a80d 41be 0b05 c9be b123 42bf 4a5e e4bd
00000280: bbd1 32be 6e62 80be 9851 7bbe 137a ccbe
00000290: 9069 18be 3be0 7a3e 7549 1dbe bb1a bd3f
000002a0: 8c06 3fbe 8f7d 1ebe c20d 43be 3fcd 89be
000002b0: 8236 04be e2e2 dabd 196c 68bd dcfa 2b3f
000002c0: a5c5 38be 97fa 6bbe 426d 11be 2f9f 58be
000002d0: 84f9 83be 953f 1fbe 5ae4 68bd 904b ea3e
000002e0: cf4b 35bd a9f0 28be cd40 67be 48ce 0dbe
000002f0: baa5 4abd 6cc9 35be 4207 ef3e 8bb6 5dbe
00000300: 210b 2abe ae4c 4d3e 269d 77be 9483 573e
00000310: f3e6 23be d90d 33be afcd f1bd 208c 20be
00000320: a5db 773e a81b 693f 076f 3ebe d673 40be
00000330: d59f 27be ad64 7bbe 01c7 ffbc 819a e6be
00000340: d223 273e 15ae eaba dacb e5bd a3c4 cdbd
00000350: 709c 5bbe bfa5 4abe 0ed6 00be f375 113e
00000360: 680c 33be cc3d c03d 4be2 65be be67 a1bd
00000370: 709c c5bc 26aa 8d3f 4eb6 85be 602c 04bd
00000380: badd 2dbe 52fa d83e ee82 40be e69e 0dbe
00000390: 19e1 23be 3cde 95be cdd8 abbe 37f5 16be
000003a0: 1dad 02bf 4bb4 c4bd 2f9d 21be b02c e4bd
000003b0: fff2 adbe 9d00 db3e 458b f43e 07a6 84be
000003c0: 8883 0bbe 42c6 e6bd 31b5 03be 40a0 df3f
000003d0: 8ff3 e3bd aeda 1ebe 68e7 76bd e338 f23f
000003e0: 2e74 afbd a066 31be 9036 ecbd 2f4a ff3d
000003f0: 2030 d1bd 839e 4240 2b0e 86be 0c2b 5e3e

linear4.weight f4 [3, 256]
-0.028065484 -0.025512451 0.005695076 0.02564354 0.0110243065 0.046179093 0.032454148 0.059698474
-0.06338357 -0.16794026 0.002211767 0.11444811 0.040347636 -0.014665098 0.029936954 0.020414995
0.023629313 -0.10410486 0.034020938 0.16034462 0.008563233 0.030093962 -0.052567888 0.035496272
-0.05934062 -0.087991 -0.025753818 -0.01971508 0.023458658 -0.030268608 -0.0076332926 -0.04327014
0.083934546 0.039238736 0.07568012 0.02499848 -0.2001183 -0.15817569 0.054029502 -0.046685725
0.00519716 -0.021718284 -0.01307428 -0.059646357 0.07229311 0.039077923 0.07812888 -0.008411971
-0.30094567 0.21982642 0.21945854 0.04778827 0.05489158 -0.04411323 0.03672777 0.026293421
-0.011165261 0.0004825608 0.026466077 0.025194094 -0.08725317 -0.10358785 0.017600967 -0.18442534
0.06784166 0.007609479 0.13439932 -0.0061875563 -0.01735459 0.0798627 0.032427866 0.015315052
-0.045581695 0.044739556 0.08285979 -0.011338901 -0.03800191 0.037478592 0.0007354625 0.109193854
-0.06965272 0.009479171 -0.014573611 0.014289404 -0.10864035 0.024141954 -0.113198504 0.07819928
0.0057726665 0.015836395 -0.06796592 -0.03548662 -0.015179194 0.020541733 0.043874156 0.07456168
-0.110515416 0.09657047 -0.006028932 -0.008694959 -0.0032454762 -0.03722151 -0.01780626 -0.11860728
-0.109710045 -0.020788316 0.062220234 0.025017383 0.021364138 0.02510504 0.045398712 -0.04381374
0.038896143 -0.0059682205 -0.0061917743 0.09838227 0.013609576 0.005846424 -0.024253974 0.038060203
0.061053675 -0.06918267 -0.029394077 0.062288556 0.159162 0.0434355 0.03134082 -0.028523197
-0.0026148206 0.015810877 -0.05247109 -0.015681794 -0.013679688 -0.06609591 0.08223494 0.014882709
-0.13764285 0.044060986 -0.0021870085 -0.085792735 -0.008229333 -0.03895515 -0.022498742 -0.06280777
-0.004361307 -0.025970519 0.010080179 -0.027745899 0.037319005 0.018990204 0.0353961 0.04952281
-0.04321177 0.010887121 0.06701241 0.091219716 0.045645703 0.11794856 0.030236078 0.0062570483
-0.02585122 0.024149496 0.052062437 0.17605945 -0.0938794 0.058425326 0.06938781 -0.23076393
-0.002065783 0.018338913 -0.07312455 -0.027864661 -0.105317965 0.06532541 -0.094630815 0.029766172
-0.010829141 0.008977784 0.043395817 0.02194628 0.03620065 0.01982832 -0.010359754 0.046024483
0.06979259 -0.055957403 -0.02110696 0.010641376 0.036939498 -0.0014583776 -0.04949615 -0.049328934
0.029190572 -0.010853775 -0.008399816 -0.03592343 0.05184586 0.0039992575 0.030470721 -0.0076322085
-0.06944812 -0.15343812 -0.032241166 0.087983206 0.049637202 0.030727487 0.0061005536 0.05959028
-0.24655762 0.04083967 -0.012309438 -0.0070089856 -0.020085704 0.0018024495 -0.033308327 -0.36885816
0.0058162115 -0.12929244 -0.010021399 -0.027274854 0.0680172 0.0012314414 0.048621763 -0.015899811
0.027155448 -0.010278527 -0.028725 0.0054775197 -0.012159343 0.0023608045 -0.043527275 -0.010903127
0.06750776 0.013610157 -0.0007865379 -0.03096101 0.06907016 -0.18463527 -0.20201103 0.025067765
0.05917568 -0.08126324 -0.031552218 0.048409436 0.0016009598 0.18517938 0.019590713 -0.032988403
0.12148429 0.024811381 -0.015292803 0.04493579 0.0634857 0.07944402 -0.028051844 -0.29586968
00000000: 96e9 e5bc 7dff d0bc c39d ba3b 6712 d23c
00000010: 4b9f 343c 4a26 3d3d a4ee 043d 6386 743d
00000020: 3fcf 81bd 88f8 2bbe 4bf3 103b c563 ea3d
00000030: 9043 253d e145 70bc 583e f53c 593d a73c
00000040: 4392 c13c ee34 d5bd 8a59 0b3d 6131 243e
00000050: cd4c 0c3c 9d87 f63c 6d51 57bd 8a64 113d
00000060: 260f 73bd a034 b4bd acf9 d2bc 8581 a1bc
00000070: 5f2c c03c dff5 f7bc b320 fabb 083c 31bd
00000080: e0e5 ab3d ccb8 203d 2efe 9a3d 9dc9 cc3c
00000090: d0eb 4cbe cff8 21be 0a4e 5d3d 8839 3fbd
000000a0: f04c aa3b 8bea b1bc 8135 56bc bd4f 74bd
000000b0: 690e 943d 2c10 203d 0902 a03d 5dd2 09bc
000000c0: 8d15 9abe 2d1a 613e bdb9 603e a2bd 433d
000000d0: fed5 603d 13b0 34bd dc6f 163d 4d65 d73c
000000e0: 80ee 36bc 3700 fd39 63cf d83c d863 ce3c
000000f0: cab1 b2bd de25 d4bd e72f 903c ffd9 3cbe
00000100: 91f0 8a3d f058 f93b fa9f 093e fcc0 cabb
00000110: 372b 8ebc 0e8f a33d 15d3 043d fceb 7a3c
00000120: dfb3 3abd d340 373d 65b2 a93d ccc6 39bc
00000130: e4a7 1bbd 2783 193d 0ecc 403a 07a1 df3d
00000140: 16a6 8ebd 864e 1b3c 28c6 6ebc 1b1e 6a3c
00000150: d57e debd 59c5 c53c 9ed4 e7bd f226 a03d
00000160: a328 bd3b 54bb 813c b731 8bbd 6b5a 11bd
00000170: 27b2 78bc 2347 a83c 63b5 333d cbb3 983d
00000180: e855 e2bd bdc6 c53d 598e c5bb 4d75 0ebc
00000190: 0eb2 54bb 9575 18bd 6fde 91bc 60e8 f2bd
000001a0: a9af e0bd 424c aabc a5da 7e3d 41f1 cc3c
000001b0: d803 af3c 16a9 cd3c 00f4 393d 0976 33bd
000001c0: 9051 1f3d 1091 c3bb 5ee4 cabb a57c c93d
000001d0: b3fa 5e3c 5c93 bf3b 45b0 c6bc 04e5 1b3d
000001e0: 6b13 7a3d a5af 8dbd d9cb f0bc 4922 7f3d
000001f0: 5dfb 223e 6ce9 313d 3b5f 003d 7ba9 e9bc
00000200: 695d 2bbb d085 813c edeb 56bd 1b77 80bc
00000210: c520 60bc 4b5d 87bd cb6a a83d 9bd6 733c
00000220: 3ff2 0cbe 4b79 343d ea53 0fbb 1ab4 afbd
00000230: 53d4 06bc 6f8f 1fbd 484f b8bc 5ca1 80bd
00000240: 4be9 8ebb 20c0 d4bc 5627 253c 5e4b e3bc
00000250: d0db 183d 5891 9b3c 80fb 103d 6ed8 4a3d
00000260: d3fe 30bd e55f 323c cd3d 893d 67d1 ba3d
00000270: fdf6 3a3d 048f f13d a7b1 f73c ed07 cd3b
00000280: f0c5 d3bc 2ad5 c53c 6c3f 553d ee48 343e
00000290: d843 c0bd 654f 6f3d 321b 8e3d 614d 6cbe
000002a0: 1662 07bb 7d3b 963c 53c2 95bd 6e44 e4bc
000002b0: f2b0 d7bd 54c9 853d cdcd c1bd 30d8 f33c
000002c0: b66c 31bc 8e17 133c d0bf 313d afc8 b33c
000002d0: 2247 143d 006f a23c f5bb 29bc 2b84 3c3d
000002e0: 6bef 8e3d 9733 65bd 81e8 acbc 2a59 2e3c
000002f0: df4d 173d 0827 bfba 7abc 4abd 230d 4abd
00000300: 1121 ef3c 08d4 31bc 629f 09bc 7224 13bd
00000310: 535c 543d 340c 833b bc9d f93c 9b17 fabb
00000320: d13a 8ebd e21e 1dbe 500f 04bd 8a30 b43d
00000330: 6150 4b3d 36b8 fb3c 27e7 c73b f014 743d
00000340: 9a79 7cbe 7f47 273d 86ad 49bc a2ab e5bb
00000350: c68a a4bc 2b40 ec3a 506e 08bd fada bcbe
00000360: eb95 be3b 3d65 04be cb30 24bc 846f dfbc
00000370: 9a4c 8b3d 5168 a13a 9d27 473d 5240 82bc
00000380: 1a75 de3c 4467 28bc b150 ebbc c47c b33b
00000390: fb37 47bc bab7 1a3b a849 32bd 07a3 32bc
000003a0: 8241 8a3d 23fd 5e3c aa2f 4eba f2a1 fdbc
000003b0: a874 8d3d 0711 3dbe fbdb 4ebe ea5a cd3c
000003c0: 3362 723d 576d a6bd e63c 01bd f948 463d
000003d0: 4cd7 d13a aa9f 3d3e b47c a03c d91e 07bd
000003e0: c1cc f83d 3d41 cb3c aa8e 7abc 970e 383d
000003f0: ca04 823d 8cb3 a23d fbcc e5bc 3b7c 97be

linear4.bias f4 [3]
0.6610886 0.7036645 0.84440583
00000000: 1a3d 293f 5b23 343f fb2a 583f
